backend/src/main/resources/cnn_model.onnx (onnx, 598657 bytes, 19 tensors)

functional_1/evaluation_1/Cast/ReadVariableOp:0 f4 [32, 1]
000000 8c 50 42 3e 15 f7 19 40 4d 0b 18 40 0b cf 0a c0
       0.18976039 2.4057057 2.3756897 -2.168887
000010 37 65 08 bf d3 f5 9e 3e d6 f7 39 3f d7 66 c2 bf
       -0.5327944 0.31046924 0.7264379 -1.5187634
000020 f1 8f 17 40 67 d8 29 c0 b2 42 09 3c 32 bc ce 3c
       2.3681605 -2.6538332 0.008377718 0.025236223
000030 20 eb cb 3e e2 52 12 c0 6e 48 dd be 4f 3a ae 3e
       0.39827824 -2.2863088 -0.43219322 0.3402886
000040 cc f3 09 bf c6 34 10 3f 00 d6 fc bf 58 17 f9 3e
       -0.5388763 0.56330526 -1.9752808 0.48650622
000050 86 d8 d7 3e 93 a2 50 3e 26 5a dd be 1d 8b 0a bc
       0.42157382 0.20374517 -0.4323284 -0.008456019
000060 7e df df 3f a6 7f 5f bf dd 4d 83 3c c3 5e 09 bf
       1.7490079 -0.8730415 0.016028339 -0.5366022
000070 93 ad 0b bf 36 b4 4c 3f d8 ab e1 3c eb 10 17 be
       -0.5456173 0.7996248 0.027547762 -0.14752547

functional_1/dense_2_1/Cast/Cast:0 f2 [64, 32]
000000 00 80 95 b0 18 b0 26 28 00 00 00 00 8a a9 cd 2c
       -0.0 -0.1432 -0.1279 0.0324 0.0 0.0 -0.04327 0.075
000010 5e b1 22 26 00 00 00 80 5e a9 d7 20 d8 1f 00 80
       -0.1677 0.02396 0.0 -0.0 -0.04193 0.00945 0.00766 -0.0
000020 31 2c bc aa f7 a9 13 2a 00 00 00 00 7a 2c 00 80
       0.0655 -0.0526 -0.0466 0.04745 0.0 0.0 0.06995 -0.0
000030 4a b0 a5 2a 00 80 22 2c 42 28 eb 30 00 00 00 00
       -0.134 0.0519 -0.0 0.0646 0.03326 0.1537 0.0 0.0
000040 00 00 00 80 00 80 00 80 00 80 00 00 00 00 00 00
       0.0 -0.0 -0.0 -0.0 -0.0 0.0 0.0 0.0
000050 00 80 00 80 00 80 00 80 00 80 00 80 00 00 00 00
       -0.0 -0.0 -0.0 -0.0 -0.0 -0.0 0.0 0.0
000060 00 80 00 00 00 00 00 00 00 80 00 80 00 00 00 80
       -0.0 0.0 0.0 0.0 -0.0 -0.0 0.0 -0.0
000070 00 00 00 00 00 80 00 00 00 80 00 80 00 80 00 80
       0.0 0.0 -0.0 0.0 -0.0 -0.0 -0.0 -0.0
000080 00 00 5d 2d 62 2d f5 ad 00 00 00 80 46 2b 4a a2
       0.0 0.0838 0.0841 -0.0931 0.0 -0.0 0.05682 -0.01228
000090 b3 2e 54 a6 00 80 00 80 87 29 e9 ae 0c a8 00 00
       0.1047 -0.02472 -0.0 -0.0 0.04318 -0.108 -0.03162 0.0
0000a0 70 a9 22 2a 0b af 48 29 00 00 00 80 a7 a8 00 00
       -0.04248 0.0479 -0.11005 0.04126 0.0 -0.0 -0.03635 0.0
0000b0 18 2c a2 af 00 00 c1 a9 dd a9 e4 2b 00 00 00 00
       0.06396 -0.11926 0.0 -0.04495 -0.0458 0.06165 0.0 0.0
0000c0 00 80 49 31 45 30 50 b0 00 80 00 00 48 2e ff ab
       -0.0 0.1652 0.1334 -0.1348 -0.0 0.0 0.09814 -0.06247
0000d0 79 30 a6 b0 00 80 00 00 42 2b d1 b0 5a a8 00 00
       0.1398 -0.1453 -0.0 0.0 0.0567 -0.1505 -0.034 0.0
0000e0 5d a9 9a 2d fd b0 75 2c 00 80 00 00 ba aa 00 00
       -0.0419 0.0875 -0.1559 0.06964 -0.0 0.0 -0.05255 0.0
0000f0 89 2f dd a9 00 80 a7 ab 75 ac 72 2d 00 80 00 80
       0.11774 -0.0458 -0.0 -0.05978 -0.06964 0.0851 -0.0 -0.0
000100 00 00 c9 2c b9 2f 7e ab 00 00 00 80 82 2a 57 a9
       0.0 0.07477 0.12067 -0.05853 0.0 -0.0 0.05084 -0.04172
000110 54 2e 65 a7 00 80 00 80 cb 27 33 ac 8b a8 00 00
       0.0989 -0.02888 -0.0 -0.0 0.03044 -0.0656 -0.0355 0.0
000120 4f a9 1f 2c e6 ad ea 2a 00 80 00 80 17 a9 00 80
       -0.04147 0.0644 -0.09216 0.05402 -0.0 -0.0 -0.03976 -0.0
000130 27 2e dd ab 00 80 7c aa 5c aa 79 2b 00 00 00 00
       0.0961 -0.06143 -0.0 -0.05066 -0.04968 0.05838 0.0 0.0
000140 00 80 a5 1d cf 2a 3b ad 00 00 00 00 42 ab 36 16
       -0.0 0.005512 0.0532 -0.0817 0.0 0.0 -0.0567 0.001516
000150 f6 2c de ad 00 80 00 00 95 26 9d ad 05 96 00 80
       0.0775 -0.0917 -0.0 0.0 0.02571 -0.0877 -0.00147 -0.0
000160 7c 2b 45 2c 56 ac 7e aa 00 80 00 80 71 22 00 00
       0.05847 0.0667 -0.06775 -0.05072 -0.0 -0.0 0.01258 0.0
000170 02 2e 17 ae 00 80 0b a9 b7 ab 12 a7 00 80 00 80
       0.0939 -0.09515 -0.0 -0.0394 -0.06027 -0.02762 -0.0 -0.0
000180 00 80 00 80 00 00 00 80 00 00 00 80 00 80 00 80
       -0.0 -0.0 0.0 -0.0 0.0 -0.0 -0.0 -0.0
000190 00 00 00 00 00 80 00 80 00 80 00 80 00 80 00 00
       0.0 0.0 -0.0 -0.0 -0.0 -0.0 -0.0 0.0
0001a0 00 00 00 80 00 00 00 80 00 00 00 80 00 00 00 00
       0.0 -0.0 0.0 -0.0 0.0 -0.0 0.0 0.0
0001b0 00 00 00 00 00 80 00 00 00 00 00 80 00 80 00 80
       0.0 0.0 -0.0 0.0 0.0 -0.0 -0.0 -0.0
0001c0 00 00 54 35 55 35 47 a4 00 00 00 80 17 2f 12 a4
       0.0 0.333 0.3333 -0.01671 0.0 -0.0 0.1108 -0.0159
0001d0 5f 35 d5 a3 00 00 00 00 26 2c 7f a4 e9 a9 00 80
       0.3357 -0.0153 0.0 0.0 0.0648 -0.01756 -0.04617 -0.0
0001e0 5d ac dc 2d a2 a3 16 2d 00 00 00 80 24 ac 00 80
       -0.0682 0.09155 -0.01491 0.07947 0.0 -0.0 -0.0647 -0.0
0001f0 0c 34 ae ac 00 80 d6 ac f2 ac 0f 30 00 80 00 00
       0.253 -0.0731 -0.0 -0.07556 -0.0773 0.1268 -0.0 0.0

functional_1/dense_2_1/BiasAdd/Cast:0 f2 [32]
000000 00 00 7c 9e 29 a1 c3 23 7c 9f e1 a0 6d 23 49 94
       0.0 -0.006332 -0.01008 0.01516 -0.00731 -0.00953 0.0145 -0.001046
000010 e3 96 aa a6 d1 9d 4d 93 57 24 d8 1e 88 23 75 9c
       -0.001681 -0.02603 -0.00568 -0.000891 0.01695 0.006683 0.01471 -0.004353
000020 b9 22 3b 27 3f 21 12 26 ff a5 74 a5 66 24 03 9c
       0.01313 0.02824 0.01025 0.02371 -0.02342 -0.0213 0.01718 -0.003918
000030 80 16 4a 25 98 9f 2e 24 fc 20 99 21 03 9e 3a a0
       0.001587 0.02066 -0.007416 0.01633 0.009735 0.01093 -0.00587 -0.008255

functional_1/dense_1_2/Cast/Cast:0 f2 [128, 64]
000000 61 a7 00 00 87 26 a1 29 80 a8 f5 a8 00 00 68 29
       -0.02882 0.0 0.0255 0.04398 -0.03516 -0.03873 0.0 0.04224
000010 1f 23 5a 2b 0d 2d 74 9d 6f a8 00 00 8b a4 8c 98
       0.01391 0.05743 0.0789 -0.005325 -0.03464 0.0 -0.01775 -0.00222
000020 00 00 91 9d dc 28 3e 2c f6 a7 03 1a cd 23 2c 9a
       0.0 -0.005436 0.03796 0.0663 -0.0311 0.002935 0.015236 -0.003014
000030 00 80 b6 1c ea 28 00 80 5c a2 81 29 d2 a6 3d 2c
       -0.0 0.0046 0.0384 -0.0 -0.01242 0.043 -0.02664 0.0662
000040 17 1e ed 2a 00 80 e2 26 1f 91 00 00 55 25 09 2b
       0.005947 0.0541 -0.0 0.02689 -0.000625 0.0 0.02083 0.05496
000050 8f 99 42 08 00 80 a5 92 26 a5 3a 9c 7e 9c 7d 2c
       -0.002714 0.0001299 -0.0 -0.000811 -0.02011 -0.004128 -0.004387 0.0701
000060 53 9a 00 00 00 00 78 21 4f 29 00 00 5c 1a 9a 1c
       -0.003088 0.0 0.0 0.01068 0.04147 0.0 0.003105 0.004494
000070 2b a0 b3 24 ae a6 4a 22 00 00 76 aa 00 80 40 2b
       -0.00814 0.01836 -0.0261 0.01228 0.0 -0.05048 -0.0 0.05664
000080 a2 26 00 80 2c a4 21 a0 52 a4 2d 1c 00 80 3c 23
       0.02591 -0.0 -0.0163 -0.008064 -0.01688 0.004078 -0.0 0.01413
000090 2b 23 0a ae 8d 22 2f 1a 12 2f 00 00 61 9b 8c a6
       0.014 -0.09436 0.012794 0.00302 0.1105 0.0 -0.003603 -0.02557
0000a0 00 80 81 a2 37 2a 86 1d be 20 db 18 e3 29 d5 99
       -0.0 -0.0127 0.04855 0.005394 0.00926 0.00237 0.046 -0.002848
0000b0 00 80 8c 1d cd a6 00 00 15 1d 77 2a 44 22 c1 28
       -0.0 0.005417 -0.02657 0.0 0.004963 0.0505 0.01224 0.03714
0000c0 98 27 83 24 00 00 69 a0 a0 22 00 80 06 a1 16 9c
       0.02966 0.01762 0.0 -0.00861 0.01294 -0.0 -0.00981 -0.00399
0000d0 f1 28 46 16 00 00 af 92 33 a1 20 1e 94 1e 25 a5
       0.0386 0.001532 0.0 -0.000816 -0.010155 0.00598 0.006424 -0.0201
0000e0 76 1f 00 00 00 00 e1 14 7a 2c 00 80 21 a2 10 9d
       0.007286 0.0 0.0 0.001191 0.06995 -0.0 -0.01197 -0.004944
0000f0 87 9d bd 9b 09 21 0e 19 00 80 07 1e 00 80 d6 a1
       -0.005398 -0.003778 0.009834 0.002468 -0.0 0.005886 -0.0 -0.0114
000100 00 80 00 00 00 00 00 00 00 00 00 00 00 00 00 00
       -0.0 0.0 0.0 0.0 0.0 0.0 0.0 0.0
000110 00 00 00 00 00 00 00 80 00 80 00 80 00 80 00 00
       0.0 0.0 0.0 -0.0 -0.0 -0.0 -0.0 0.0
000120 00 00 00 00 00 80 00 00 00 80 00 80 00 80 00 80
       0.0 0.0 -0.0 0.0 -0.0 -0.0 -0.0 -0.0
000130 00 00 00 00 00 00 00 80 00 00 00 00 00 80 00 00
       0.0 0.0 0.0 -0.0 0.0 0.0 -0.0 0.0
000140 00 80 00 00 00 00 00 80 00 00 00 00 00 00 00 80
       -0.0 0.0 0.0 -0.0 0.0 0.0 0.0 -0.0
000150 00 00 00 80 00 80 00 00 00 80 00 80 00 80 00 80
       0.0 -0.0 -0.0 0.0 -0.0 -0.0 -0.0 -0.0
000160 00 00 00 00 00 80 00 80 00 00 00 00 00 80 00 80
       0.0 0.0 -0.0 -0.0 0.0 0.0 -0.0 -0.0
000170 00 80 00 00 00 00 00 80 00 00 00 00 00 80 00 80
       -0.0 0.0 0.0 -0.0 0.0 0.0 -0.0 -0.0
000180 00 80 00 80 00 00 00 00 00 00 00 00 00 00 00 00
       -0.0 -0.0 0.0 0.0 0.0 0.0 0.0 0.0
000190 00 80 00 80 00 00 00 00 00 00 00 00 00 80 00 00
       -0.0 -0.0 0.0 0.0 0.0 0.0 -0.0 0.0
0001a0 00 00 00 80 00 00 00 80 00 00 00 00 00 00 00 00
       0.0 -0.0 0.0 -0.0 0.0 0.0 0.0 0.0
0001b0 00 00 00 80 00 80 00 00 00 80 00 80 00 00 00 00
       0.0 -0.0 -0.0 0.0 -0.0 -0.0 0.0 0.0
0001c0 00 00 00 00 00 00 00 00 00 00 00 80 00 80 00 00
       0.0 0.0 0.0 0.0 0.0 -0.0 -0.0 0.0
0001d0 00 00 00 00 00 80 00 00 00 80 00 80 00 80 00 80
       0.0 0.0 -0.0 0.0 -0.0 -0.0 -0.0 -0.0
0001e0 00 00 00 80 00 80 00 80 00 80 00 00 00 00 00 00
       0.0 -0.0 -0.0 -0.0 -0.0 0.0 0.0 0.0
0001f0 00 80 00 00 00 00 00 00 00 80 00 00 00 80 00 80
       -0.0 0.0 0.0 0.0 -0.0 0.0 -0.0 -0.0

functional_1/dense_1_2/BiasAdd/Cast:0 f2 [64]
000000 58 1d 21 9d 72 a7 ca 1d 0b 23 bd 21 3d a4 f6 a0
       0.00522 -0.00501 -0.02908 0.005653 0.013756 0.01121 -0.01656 -0.00969
000010 9f 10 d5 1c 5f 21 73 24 5e 99 73 96 60 21 45 20
       0.000564 0.00472 0.01049 0.01738 -0.00262 -0.0015745 0.0105 0.00834
000020 1c 9f e7 21 27 9a 29 1e c7 21 09 25 ae 9c a4 25
       -0.006943 0.01153 -0.003004 0.006016 0.011284 0.01967 -0.00457 0.02203
000030 d2 a4 38 20 ce 26 83 9b 71 1f 5d a0 5d a0 79 1a
       -0.01883 0.00824 0.02658 -0.003668 0.007267 -0.00852 -0.00852 0.00316
000040 24 a4 bb 26 68 8f 78 a7 38 23 80 9d 30 29 bc 19
       -0.01617 0.02629 -0.000452 -0.02917 0.0141 -0.00537 0.04053 0.0028
000050 c4 1a 7b a8 00 00 f0 2c 73 a0 7d 26 da 21 4e 26
       0.003304 -0.035 0.0 0.07715 -0.00869 0.02534 0.01143 0.02463
000060 5b 2c 32 9d 16 80 83 a4 93 a4 2b a4 c6 9e 73 26
       0.06805 -0.005074 -1.3e-06 -0.01762 -0.01787 -0.01628 -0.006615 0.02519
000070 a3 22 ca 24 3a 1c 7d 9f 35 9b 9a 1e 67 a4 25 1e
       0.01296 0.0187 0.004128 -0.007313 -0.00352 0.006447 -0.0172 0.006

functional_1/dense_1/Cast/Cast:0 f2 [141, 128]
000000 55 27 61 95 00 80 00 80 00 00 00 80 16 ab ba a9
       0.02864 -0.001313 -0.0 -0.0 0.0 -0.0 -0.05536 -0.04474
000010 13 24 00 00 00 00 43 ad d9 94 b5 9f 81 a5 35 a5
       0.01591 0.0 0.0 -0.0822 -0.0011835 -0.007526 -0.0215 -0.02034
000020 00 00 38 16 c9 9c 2f 86 83 2d 00 00 00 00 28 8d
       0.0 0.001518 -0.004673 -9.435e-05 0.0861 0.0 0.0 -0.0003147
000030 2e 29 00 1c 45 2c 02 aa c9 ae 00 00 89 25 00 80
       0.04047 0.003906 0.0667 -0.04694 -0.106 0.0 0.02162 -0.0
000040 56 9f 54 1d 00 00 00 00 00 00 5d 1f 7a aa 00 80
       -0.007164 0.005203 0.0 0.0 0.0 0.00719 -0.0506 -0.0
000050 1c 9d f0 a2 72 a0 1a ac 09 a6 24 29 00 80 7e 29
       -0.00499 -0.01355 -0.00868 -0.0641 -0.02357 0.04016 -0.0 0.0429
000060 00 80 c0 25 d4 a5 62 21 70 1b 81 1c df 2c 8e 13
       -0.0 0.02246 -0.02277 0.01051 0.003632 0.0044 0.0761 0.000922
000070 00 80 44 96 0c 20 15 29 a4 9f 07 2a 00 00 33 2b
       -0.0 -0.00153 0.007904 0.0397 -0.00746 0.0471 0.0 0.05624
000080 3e 29 89 20 6d 2a 00 80 fc 9a 00 00 4a 21 00 00
       0.04095 0.00886 0.0502 -0.0 -0.00341 0.0 0.01033 0.0
000090 00 80 5d a8 00 80 50 a8 58 28 ba a6 ab 26 f8 21
       -0.0 -0.0341 -0.0 -0.0337 0.03394 -0.02628 0.02605 0.01166
0000a0 00 80 00 80 36 93 b9 a5 00 80 68 23 00 80 dd a4
       -0.0 -0.0 -0.0008802 -0.02235 -0.0 0.014465 -0.0 -0.019
0000b0 17 aa 00 00 08 98 b1 20 30 a8 73 9b 00 00 00 00
       -0.04758 0.0 -0.001968 0.00916 -0.0327 -0.003637 0.0 0.0
0000c0 55 9d 00 80 aa a1 21 98 21 2e 00 00 60 2c 00 00
       -0.005207 -0.0 -0.01106 -0.002016 0.09576 0.0 0.06836 0.0
0000d0 f8 20 00 00 00 00 ea a7 00 80 00 80 00 00 00 80
       0.009705 0.0 0.0 -0.03091 -0.0 -0.0 0.0 -0.0
0000e0 90 a1 2e 28 90 a0 d5 9e 61 18 2a a4 ad a0 1d 2b
       -0.010864 0.03265 -0.00891 -0.00667 0.002138 -0.01627 -0.00913 0.05557
0000f0 7f 23 00 80 da 97 20 22 d3 a9 00 80 16 a5 33 28
       0.01464 -0.0 -0.001917 0.01196 -0.0455 -0.0 -0.01987 0.0328
000100 fb 20 fd 15 00 80 00 80 00 00 00 80 4c aa 65 a8
       0.00973 0.001462 -0.0 -0.0 0.0 -0.0 -0.0492 -0.03433
000110 7c 27 00 00 00 00 c7 a9 1a a4 be a9 cd a6 d0 28
       0.02924 0.0 0.0 -0.04514 -0.01602 -0.04486 -0.02657 0.0376
000120 00 00 e4 a0 8c a7 81 81 9a 96 00 00 00 00 5f 95
       0.0 -0.00955 -0.02948 -2.295e-05 -0.001612 0.0 0.0 -0.001311
000130 54 a0 4e 1a 0f 9c 2e 2b d6 a6 00 00 98 ae 00 80
       -0.00845 0.003078 -0.003963 0.0561 -0.0267 0.0 -0.103 -0.0
000140 10 1d ef a8 00 00 00 00 00 80 22 25 7e 18 00 80
       0.004944 -0.03854 0.0 0.0 -0.0 0.02005 0.002193 -0.0
000150 16 25 5b 24 b8 a4 d5 1c cb 9a 62 a5 00 00 eb 28
       0.01987 0.01701 -0.01843 0.00472 -0.003317 -0.02103 0.0 0.03842
000160 00 80 37 94 98 26 96 a7 1f 9a 80 18 1c 28 7c a0
       -0.0 -0.001029 0.02576 -0.02963 -0.002989 0.002197 0.0321 -0.00876
000170 00 80 6d 95 7d a1 e9 a9 fb a1 9a a9 00 00 6b 25
       -0.0 -0.001325 -0.01072 -0.04617 -0.01168 -0.04376 0.0 0.02116
000180 88 25 b4 26 dd 28 00 80 16 a2 00 00 29 21 00 00
       0.0216 0.02618 0.038 -0.0 -0.01189 0.0 0.01008 0.0
000190 00 00 d5 20 00 80 d3 19 ea 0b 5a a1 4a 1b 77 24
       0.0 0.00944 -0.0 0.002844 0.0002415 -0.01045 0.00356 0.01744
0001a0 00 80 00 00 41 8c b4 2c 00 00 44 23 00 80 10 2d
       -0.0 0.0 -0.0002596 0.0735 0.0 0.01419 -0.0 0.0791
0001b0 8a 29 00 80 38 a1 5a a6 d5 af dc 24 00 00 00 00
       0.04327 -0.0 -0.01019 -0.02481 -0.1224 0.01898 0.0 0.0
0001c0 11 a3 00 00 ac a1 3b a8 3c ac 00 00 6d a9 00 00
       -0.0138 0.0 -0.01108 -0.03305 -0.06616 0.0 -0.0424 0.0
0001d0 98 27 00 80 00 00 d4 a1 00 00 00 80 00 00 00 80
       0.02966 -0.0 0.0 -0.01138 0.0 -0.0 0.0 -0.0
0001e0 20 9e 68 24 90 0a 5c a5 6e 96 c4 22 53 29 ea 27
       -0.00598 0.01721 0.0002003 -0.02094 -0.00157 0.013214 0.0416 0.03091
0001f0 ce a8 00 00 ab 9c b6 24 ed a3 00 80 38 2d 37 a6
       -0.03754 0.0 -0.00456 0.0184 -0.01548 -0.0 0.08154 -0.02428

functional_1/dense_1/BiasAdd/Cast:0 f2 [128]
000000 c4 a0 d1 14 05 93 09 81 6a 8d 8d 92 15 24 b7 96
       -0.00931 0.001176 -0.000857 -1.58e-05 -0.0003304 -0.0007997 0.01595 -0.001639
000010 4a 95 14 8d bb 9b c5 1d cf 22 25 9f 6e 22 83 a3
       -0.001291 -0.00031 -0.003775 0.005634 0.0133 -0.006977 0.01256 -0.01467
000020 3b 9f f4 9c fc 20 19 19 5e a6 3f 9a bf 9c 23 a3
       -0.00706 -0.004837 0.009735 0.00249 -0.02487 -0.00305 -0.004635 -0.01394
000030 26 a2 f6 20 43 a0 b4 15 0b 9b 15 9f 1f 9b 58 92
       -0.01201 0.00969 -0.00832 0.001392 -0.003439 -0.006916 -0.003477 -0.0007744
000040 46 22 f5 13 f2 9b 34 98 ea 98 1d 99 6e 1e bb 96
       0.01225 0.0009713 -0.00388 -0.002052 -0.0024 -0.002497 0.00628 -0.001643
000050 d0 a4 f4 24 53 18 db 26 1a 9f 94 1e 8d 9e a7 1c
       -0.0188 0.01935 0.002111 0.02678 -0.006935 0.006424 -0.006397 0.004543
000060 90 9e dd a2 4c 11 94 25 2e 94 dc 9a e9 a1 99 95
       -0.00641 -0.013405 0.0006466 0.02179 -0.00102 -0.00335 -0.01154 -0.001367
000070 04 80 63 20 15 1c ed 94 22 8d e4 20 23 9a ba 13
       -2.4e-07 0.00857 0.003986 -0.001203 -0.0003133 0.00955 -0.002996 0.000943
000080 be a0 8d 1a 34 a3 c8 99 b9 1f eb 99 aa a5 a9 94
       -0.00926 0.003199 -0.01407 -0.002823 0.00754 -0.00289 -0.02213 -0.001138
000090 59 8e 0d a8 71 9a 9a 95 e2 9e f3 23 46 a2 af 9e
       -0.0003874 -0.03165 -0.003145 -0.001368 -0.00672 0.015526 -0.01225 -0.006527
0000a0 fc 9c 4b 80 a1 9f 74 1b 6e 99 ff 20 0c 97 4a 1c
       -0.004868 -4.5e-06 -0.00745 0.00364 -0.002651 0.00976 -0.00172 0.00419
0000b0 16 94 88 82 f7 25 05 25 7e 95 99 20 da 8d 30 9e
       -0.000998 -3.86e-05 0.0233 0.0196 -0.001341 0.00898 -0.0003572 -0.006042
0000c0 47 98 80 96 c0 24 21 a0 75 a0 e6 a0 07 1e 25 8b
       -0.002089 -0.001587 0.01855 -0.008064 -0.008705 -0.00957 0.005886 -0.000218
0000d0 83 9b 24 97 e4 97 21 a5 d8 9b 0b 9c ca 9f 9c 9a
       -0.003668 -0.001743 -0.001926 -0.02003 -0.00383 -0.00395 -0.007607 -0.003227
0000e0 47 1d 3a 9a 3b 22 08 29 e1 a4 35 a3 66 20 01 95
       0.005154 -0.00304 0.01217 0.0393 -0.01906 -0.01408 0.00859 -0.001222
0000f0 7a 1a 3f 80 52 95 cd 18 da 9d 00 00 4d 1d 80 20
       0.003162 -3.76e-06 -0.001299 0.002344 -0.005714 0.0 0.005177 0.00879

functional_1/conv2d_3_1/convolution/Cast:0 f2 [128, 128, 3, 3]
000000 e0 a0 34 20 5c a0 3e a2 1e 1e 78 a1 8f 1d a8 95
       -0.00952 0.00821 -0.008514 -0.01219 0.005974 -0.01068 0.00543 -0.001381
000010 ef 16 3f 12 66 a0 cb 15 6a 91 69 17 d4 8c 87 20
       0.001693 0.0007625 -0.00859 0.001414 -0.000661 0.001809 -0.0002947 0.00884
000020 c6 0d 7c 94 ac 20 90 1c 79 22 34 1f 5d 1d fe 22
       0.0003524 -0.001095 0.009125 0.004456 0.01264 0.007034 0.005238 0.01366
000030 32 99 15 1a dc 10 4a 9c 53 9c a0 11 a6 a4 6a 1d
       -0.002537 0.00297 0.000593 -0.00419 -0.004223 0.0006866 -0.01816 0.005287
000040 73 9e dd 89 d7 9e 0f 20 41 24 c0 91 a6 21 ff 21
       -0.006298 -0.0001789 -0.00668 0.00793 0.01662 -0.000702 0.01103 0.01171
000050 c5 9e 22 9c f7 1d 48 80 93 11 00 1d d0 9d fe a0
       -0.00661 -0.004036 0.005825 -4.3e-06 0.0006804 0.004883 -0.005676 -0.00975
000060 8b 15 f7 9d c0 19 f6 a1 79 9e 15 98 32 20 4e 19
       0.001353 -0.005825 0.002808 -0.01164 -0.00632 -0.001993 0.008194 0.00259
000070 22 96 48 a0 65 9a 76 23 80 1d 7c 19 e3 95 5b 9d
       -0.001497 -0.00836 -0.003122 0.01457 0.00537 0.002678 -0.001437 -0.00523
000080 b0 26 42 1f 81 a0 f0 9a 98 9d c8 20 11 a1 e9 18
       0.02612 0.007088 -0.0088 -0.003387 -0.005463 0.00934 -0.009895 0.002398
000090 04 a4 96 a3 77 88 10 9a f6 a0 80 12 fa 17 aa 96
       -0.01569 -0.01482 -0.0001363 -0.00296 -0.00969 0.0007935 0.001947 -0.001627
0000a0 bd 1a 4c 20 3b 95 b4 8c 29 9d 7a a0 42 9c 54 a5
       0.00329 0.00839 -0.001277 -0.000287 -0.00504 -0.00874 -0.004158 -0.02081
0000b0 95 9d d5 9c f6 1c 7f 1c a6 17 18 22 e5 24 e3 22
       -0.00545 -0.00472 0.004845 0.00439 0.001867 0.0119 0.01912 0.01345
0000c0 c7 8b f7 9d 1c a0 11 a1 af 8e 3a 24 10 20 a5 0d
       -0.0002373 -0.005825 -0.008026 -0.009895 -0.000408 0.01651 0.007935 0.0003445
0000d0 a5 1c 2c 20 6e 20 d0 20 07 9e ba 1b ca 1f b9 1e
       0.004536 0.00815 0.00865 0.0094 -0.005886 0.003773 0.007607 0.006565
0000e0 31 93 ec a0 44 98 aa 22 a2 15 08 9a 30 96 04 a2
       -0.000878 -0.00961 -0.002083 0.013016 0.001375 -0.002945 -0.001511 -0.01175
0000f0 df 99 42 a1 01 1c 39 a0 f4 1f 54 1f 5f a1 f4 0c
       -0.002867 -0.01027 0.00391 -0.00825 0.007767 0.007156 -0.01049 0.0003023
000100 78 26 11 91 1a 1c 49 26 6b 22 da 1f 3c 24 96 1c
       0.02527 -0.0006185 0.004005 0.02455 0.012535 0.007668 0.01654 0.00448
000110 3c 22 73 00 8a 1d 59 9e 9d 9d b6 9b 5c a2 c1 1c
       0.01218 6.85e-06 0.00541 -0.0062 -0.00548 -0.003765 -0.01242 0.004642
000120 64 1a ea 21 90 22 97 a5 f5 94 af 99 fc a3 4b 93
       0.00312 0.01155 0.01282 -0.02184 -0.00121 -0.002775 -0.015594 -0.0008903
000130 76 9f df 1f 3e 20 d5 a2 94 0e 07 20 6e 1c 0c 1b
       -0.007286 0.007687 0.008286 -0.01334 0.0004015 0.007866 0.004326 0.00344
000140 7b 22 5e 0f 43 1f b4 93 f6 23 65 1c 53 23 38 1c
       0.01266 0.0004497 0.00709 -0.0009403 0.01555 0.00429 0.014305 0.00412
000150 97 1f 78 26 64 1e 56 12 42 95 1c 15 8a 1d 6a 1f
       0.007412 0.02527 0.00624 0.0007734 -0.001284 0.001247 0.00541 0.00724
000160 76 a6 9c a4 06 a0 cf 9a fb 9c 65 1f 18 a0 53 21
       -0.02524 -0.018 -0.00786 -0.003325 -0.004864 0.00722 -0.007996 0.0104
000170 be 1b 67 1e 31 98 bc 9c b9 1f 2d 9c 4a 25 93 1f
       0.00378 0.006252 -0.002047 -0.004623 0.00754 -0.004078 0.02066 0.007397
000180 54 98 ff 83 1b 23 ab 94 a8 17 f8 17 5d 21 3e 22
       -0.002113 -6.1e-05 0.01388 -0.00114 0.001869 0.0019455 0.010475 0.01219
000190 12 91 c8 18 36 21 45 1a 4f 21 f5 93 89 1f 25 94
       -0.000619 0.002335 0.01018 0.003061 0.01037 -0.0009713 0.00736 -0.001012
0001a0 37 98 61 96 46 1c b8 1d 2f 1f 22 9a 3a a4 bc a3
       -0.002058 -0.001557 0.004173 0.005585 0.007015 -0.002995 -0.01651 -0.01511
0001b0 6e a0 9e 9d 07 a1 02 a0 a3 9b 21 90 b1 a0 2c 1c
       -0.00865 -0.005486 -0.00982 -0.00783 -0.003729 -0.000504 -0.00916 0.004074
0001c0 2a 9c b8 97 c6 a1 ef 1b a8 0a 77 a4 79 9f 2d 20
       -0.004066 -0.001884 -0.01128 0.003874 0.0002031 -0.01744 -0.007298 0.008156
0001d0 0e 17 ce 9d ed a2 84 96 6f a3 a1 9e 83 0b 43 9d
       0.001722 -0.00567 -0.01353 -0.001591 -0.01452 -0.006474 0.0002292 -0.00514
0001e0 89 a1 5b 9c 31 a5 ad 20 da 21 d5 1e bc 96 b2 22
       -0.01081 -0.004253 -0.02028 0.00913 0.01143 0.00667 -0.001644 0.01308
0001f0 58 23 ae a0 1c 1d fe 12 3c 22 0a a1 65 a0 2d a0
       0.01434 -0.00914 0.00499 0.0008535 0.01218 -0.00984 -0.00858 -0.008156

functional_1/conv2d_2_1/convolution/Cast:0 f2 [128, 64, 3, 3]
000000 ee 24 72 24 a3 ab f7 a2 fb 9f 51 a1 38 21 38 1c
       0.01926 0.01736 -0.05966 -0.0136 -0.007793 -0.01038 0.01019 0.00412
000010 6d 24 b7 9a 2a 27 0c 1f 4e 1c 22 a7 4f 27 9f 9f
       0.01729 -0.003279 0.02798 0.00688 0.004204 -0.02786 0.02855 -0.007442
000020 46 23 c5 9e 63 a7 c9 a3 34 20 c9 13 a4 25 0e a0
       0.014206 -0.00661 -0.02885 -0.015205 0.00821 0.0009503 0.02203 -0.00792
000030 d1 22 de 1a 81 20 60 21 a7 8d 27 a1 df 19 b5 a3
       0.01331 0.003353 0.0088 0.0105 -0.000345 -0.01006 0.002867 -0.01505
000040 2e 22 a9 a3 34 23 61 99 01 20 78 25 e9 1d 59 1f
       0.01207 -0.01496 0.01407 -0.002626 0.00782 0.02136 0.00577 0.007175
000050 c9 21 03 17 9d a8 dd 9c be 9b 99 21 3c 1c 08 99
       0.0113 0.001712 -0.03604 -0.00475 -0.00378 0.01093 0.004135 -0.002457
000060 8a 18 4b 21 33 a2 5d 1c b1 19 5f a4 20 08 1b a0
       0.002216 0.01034 -0.01211 0.00426 0.002779 -0.01707 0.0001259 -0.00802
000070 06 21 f1 a0 bb 1b 93 1f b8 23 05 9e 42 99 bf a3
       0.00981 -0.00965 0.003775 0.007397 0.015076 -0.00588 -0.002567 -0.01513
000080 88 9e c6 22 be a1 ba a3 17 24 23 a5 00 99 ed a0
       -0.00638 0.01323 -0.011215 -0.01509 0.01598 -0.02007 -0.002441 -0.00962
000090 ce 21 f7 a2 03 a0 5a 9d dc 1e 8b 21 78 90 f4 9e
       0.01134 -0.0136 -0.007835 -0.005226 0.0067 0.010826 -0.0005455 -0.00679
0000a0 2f a4 0b 1c 13 9a a6 1d 95 24 29 96 35 a3 ad 9b
       -0.01634 0.00395 -0.002966 0.005516 0.0179 -0.001504 -0.01408 -0.003748
0000b0 66 a4 79 a5 61 9f 39 a2 ba 9d 02 96 89 98 e7 1a
       -0.01718 -0.02138 -0.007206 -0.01215 -0.005592 -0.001467 -0.002214 0.00337
0000c0 23 1c 06 a6 c3 a3 5c 27 45 20 c0 1c 6d 9a 82 93
       0.00404 -0.02353 -0.01516 0.02875 0.00834 0.00464 -0.003138 -0.0009165
0000d0 fc a5 fb a4 96 99 db 98 e5 23 d3 1c 1a 1d cf 24
       -0.02338 -0.01945 -0.002728 -0.00237 0.01542 0.00471 0.004982 0.01878
0000e0 f7 a4 ce 9c 9d 1d e1 19 3a a7 46 25 77 a6 cd 1c
       -0.0194 -0.004692 0.00548 0.00287 -0.02823 0.0206 -0.02525 0.00469
0000f0 90 a4 94 14 d6 11 06 21 b7 25 cc 1c 05 20 cc 20
       -0.01782 0.001118 0.0007124 0.00981 0.02232 0.004684 0.00785 0.00937
000100 46 9e 03 18 2f 9f 48 0c b8 a4 d9 a0 b1 9d ee 28
       -0.006126 0.001959 -0.007015 0.0002613 -0.01843 -0.00947 -0.005558 0.0385
000110 17 a5 cb a5 7c 1c 59 9a 6e 9d c3 23 3d 9c 42 1c
       -0.01988 -0.02263 0.00438 -0.0031 -0.005302 0.01516 -0.00414 0.004158
000120 d3 23 c7 24 dd a7 07 9d 1a 1c df 04 f8 a2 c6 a2
       0.01528 0.01866 -0.03072 -0.00491 0.004005 7.43e-05 -0.01361 -0.01323
000130 5d 21 67 2a 2d 96 c3 a5 42 9c eb 89 b4 26 38 a3
       0.010475 0.05002 -0.001508 -0.0225 -0.004158 -0.0001806 0.02618 -0.0141
000140 d6 a3 7a 9f 46 90 9d a2 f8 0a 08 08 11 25 dd 1d
       -0.015305 -0.0073 -0.0005217 -0.01292 0.0002127 0.000123 0.01979 0.005726
000150 f7 12 7a a8 61 22 26 25 24 24 af 9f 25 17 9b 1e
       0.00085 -0.03497 0.01246 0.02011 0.01617 -0.007504 0.001744 0.00645
000160 81 9b a5 a2 8a 1d 7d 25 42 20 f2 1c d2 a0 52 9b
       -0.003664 -0.01298 0.00541 0.02144 0.008316 0.00483 -0.009415 -0.003574
000170 c5 9b fb 9e 0f a5 29 98 35 24 f2 20 3e 25 6f 23
       -0.003794 -0.006817 -0.01976 -0.002031 0.01643 0.00966 0.02048 0.01452
000180 98 a1 01 1c 05 9f a4 98 7c 1d 03 28 f3 a4 1d a5
       -0.010925 0.00391 -0.006855 -0.002266 0.005356 0.03134 -0.01933 -0.01997
000190 69 a6 12 27 17 99 49 9c 6e 10 0a 20 52 22 e9 a6
       -0.02504 0.02762 -0.002485 -0.004185 0.0005407 0.00789 0.012344 -0.027
0001a0 43 19 97 23 7c 9f eb 21 12 a3 77 94 dc 1c ac 92
       0.00257 0.014824 -0.00731 0.01156 -0.01381 -0.00109 0.004745 -0.0008144
0001b0 3d 25 f6 a1 ff 20 0b a1 cb 20 9c 22 29 a9 85 a3
       0.02046 -0.01164 0.00976 -0.00985 0.00936 0.01291 -0.0403 -0.01469
0001c0 d0 20 63 9c 87 26 2b 23 71 a4 b6 a5 f0 a4 05 a7
       0.0094 -0.004284 0.0255 0.014 -0.01735 -0.02231 -0.01929 -0.02742
0001d0 75 a4 31 a8 69 9d 6c 23 a8 a0 68 a0 dd 25 04 a1
       -0.01741 -0.03275 -0.005283 0.014496 -0.009094 -0.008606 0.0229 -0.009796
0001e0 53 21 63 9f f6 a3 70 a4 66 21 b2 99 27 24 0e 91
       0.0104 -0.007214 -0.01555 -0.01733 0.010544 -0.00278 0.01622 -0.000617
0001f0 4d 9f ec a4 fd 24 6b a2 db a6 29 28 55 9e 53 9a
       -0.00713 -0.01923 0.01949 -0.012535 -0.02678 0.0325 -0.006184 -0.003088

functional_1/conv2d_1_2/convolution/Cast:0 f2 [64, 64, 3, 3]
000000 13 a9 25 20 22 21 d8 9d 5b aa 22 a0 ac a4 a4 a7
       -0.03964 0.008095 0.010025 -0.005707 -0.04965 -0.00807 -0.01825 -0.02985
000010 28 a7 94 25 5f 17 e6 23 7c 9d 76 1e bc a3 4c 1e
       -0.02795 0.02179 0.0018 0.01543 -0.005356 0.00631 -0.01511 0.00615
000020 54 24 7a 9e 33 a7 5b 23 bb 23 98 a6 4d 96 71 28
       0.0169 -0.006325 -0.02812 0.014366 0.0151 -0.02576 -0.001538 0.0347
000030 4f a6 13 a6 fe 25 5c 91 7f 26 48 26 3c a4 03 1e
       -0.02464 -0.02373 0.0234 -0.000654 0.02538 0.02454 -0.01654 0.00587
000040 d7 a2 0b a6 ad a4 64 25 d4 1f 8d 21 69 a6 29 22
       -0.01336 -0.0236 -0.01826 0.02106 0.007645 0.01084 -0.02504 0.01203
000050 06 a4 69 25 df a0 41 9e f8 a3 1e 9f 1d 25 8c 21
       -0.01572 0.02113 -0.009514 -0.006107 -0.015564 -0.00695 0.01997 0.01083
000060 24 25 e7 24 a2 a6 92 1c 56 1e 93 a5 46 a5 0d 9d
       0.02008 0.01915 -0.02591 0.004463 0.006187 -0.02177 -0.0206 -0.004932
000070 7d 21 2f a6 08 a2 8a a4 ab 94 41 9f 79 1c b6 22
       0.01072 -0.02415 -0.01178 -0.01773 -0.00114 -0.007084 0.004368 0.01311
000080 2d a5 16 21 a2 a4 59 a3 a7 24 10 22 0d a4 2e 26
       -0.02022 0.00993 -0.0181 -0.01435 0.01817 0.01184 -0.01582 0.02414
000090 1f 2a 7e a5 33 1d 20 a4 5b a8 ee 26 5e a1 fb 9e
       0.04782 -0.02145 0.005077 -0.01611 -0.03403 0.02707 -0.01048 -0.006817
0000a0 85 a4 b9 21 47 9d 40 21 22 19 30 24 2b a0 b2 28
       -0.01765 0.01118 -0.005154 0.010254 0.002506 0.01636 -0.00814 0.03668
0000b0 c1 29 7e 24 4c 1a 7f a9 5f 89 37 20 46 a5 4b a5
       0.04495 0.01755 0.003075 -0.04294 -0.0001639 0.00823 -0.0206 -0.02068
0000c0 b4 a6 ba 97 d4 9e 18 a0 e3 9c 19 a5 c2 93 1e a0
       -0.02618 -0.001886 -0.006668 -0.007996 -0.004772 -0.01991 -0.000947 -0.00804
0000d0 5a 22 28 27 3a a4 27 a0 a1 a5 8a 94 fb 1b 5a 24
       0.012405 0.02795 -0.01651 -0.00811 -0.02199 -0.001108 0.003897 0.017
0000e0 84 a2 95 a6 26 a5 03 a5 a8 28 a6 24 ec 20 15 94
       -0.012726 -0.02571 -0.02011 -0.01958 0.03638 0.01816 0.00961 -0.000997
0000f0 90 a8 a9 22 90 a5 77 1c 11 a5 8a a2 60 a5 6c 24
       -0.03564 0.01301 -0.02173 0.00436 -0.01979 -0.01277 -0.021 0.01727
000100 96 1c 15 99 25 1f 53 9e a9 98 6a 25 ea 97 b2 1c
       0.00448 -0.002481 0.006977 -0.006176 -0.002275 0.02115 -0.001932 0.004585
000110 4e 21 82 1b 54 25 2f 17 82 24 69 20 32 99 8e 20
       0.01036 0.003666 0.02081 0.001754 0.01761 0.00861 -0.002537 0.008896
000120 f3 a2 a7 a5 de a3 8f 1e 66 1e 49 1d 78 9b de 1d
       -0.01357 -0.02208 -0.015366 0.006405 0.00625 0.00516 -0.003647 0.00573
000130 d6 a0 c1 9f 99 a1 2b a5 c3 28 31 21 59 2a 63 a4
       -0.009445 -0.007572 -0.01093 -0.02019 0.0372 0.01014 0.0496 -0.01714
000140 ef a6 cc 20 10 a9 86 24 97 20 d4 23 d1 a5 17 24
       -0.02708 0.00937 -0.03955 0.01767 0.008965 0.01529 -0.02272 0.01598
000150 74 21 9c a5 a5 a1 7d 9d 5f 24 f1 85 44 a6 aa 19
       0.01065 -0.02191 -0.011024 -0.00536 0.01707 -9.066e-05 -0.02448 0.002766
000160 bd 23 ca a0 4c a8 ea a3 0a 0e fb 25 19 96 66 26
       0.015114 -0.00935 -0.03357 -0.01546 0.0003686 0.02336 -0.001489 0.025
000170 8b 97 db 24 f4 a2 2d 26 1c 20 62 1f a1 23 3e 29
       -0.001842 0.01897 -0.01358 0.02412 0.008026 0.00721 0.0149 0.04095
000180 33 23 39 27 e4 22 22 23 a9 a6 7f 22 74 a4 cb 1e
       0.01406 0.02821 0.01346 0.01393 -0.02602 0.01269 -0.0174 0.006634
000190 fb a4 de 0d 2a 1f 27 20 5b 25 ca 9a b8 a5 80 a1
       -0.01945 0.000358 0.006996 0.00811 0.02092 -0.003315 -0.02234 -0.01074
0001a0 c4 90 a5 a3 87 a3 6d a2 1b 1a 44 a0 14 19 46 19
       -0.0005817 -0.01493 -0.0147 -0.01255 0.002981 -0.00833 0.00248 0.002575
0001b0 92 23 cc 96 05 24 88 2a 4b 28 77 a8 03 a3 2c 26
       0.014786 -0.001659 0.0157 0.05103 0.03354 -0.03488 -0.013695 0.02411
0001c0 79 a3 40 a6 bd aa 34 9e 9a 9d bc 24 6b 28 c3 24
       -0.014595 -0.02441 -0.05264 -0.006058 -0.00547 0.0185 0.03452 0.0186
0001d0 67 8c d4 21 da 9f fc a4 12 a8 be a4 be 25 1f a9
       -0.0002687 0.01138 -0.007668 -0.01947 -0.0318 -0.01852 0.02243 -0.04
0001e0 0d 25 13 21 31 a4 6f a8 d7 98 f9 25 41 a4 cd a2
       0.01973 0.00991 -0.01637 -0.03464 -0.002363 0.02333 -0.01662 -0.01328
0001f0 8b a5 aa 21 45 aa 08 92 da 1b 48 a5 11 26 ef a5
       -0.02165 0.01106 -0.04898 -0.000736 0.003834 -0.02063 0.0237 -0.02318

functional_1/conv2d_1/convolution/Cast:0 f2 [64, 12, 3, 3]
000000 e2 16 dd 29 50 9f 2e 28 1c 28 a9 19 13 2a da 18
       0.00168 0.0458 -0.00714 0.03265 0.0321 0.002764 0.04745 0.002369
000010 37 2c 5e 23 12 28 33 a1 81 9d 29 1e c3 14 23 a7
       0.06586 0.01439 0.0318 -0.010155 -0.005375 0.006016 0.001163 -0.02788
000020 3c a1 76 2c bd 26 1e 1e f4 25 ff 24 ba 9f e3 9c
       -0.01022 0.0697 0.02632 0.005974 0.02325 0.01952 -0.007545 -0.004772
000030 29 a7 c2 28 c5 a5 36 2a e0 27 20 81 68 21 0d a3
       -0.02797 0.03717 -0.02254 0.04852 0.03076 -1.717e-05 0.01056 -0.01377
000040 d6 a4 03 25 e3 19 29 2a eb 20 d3 24 0e 2d f5 21
       -0.01889 0.01958 0.002874 0.04813 0.009605 0.01884 0.079 0.011635
000050 02 24 43 24 26 22 36 2f 2b 23 59 a5 c1 21 5e a4
       0.01566 0.01665 0.01201 0.1127 0.014 -0.02089 0.01124 -0.01706
000060 f0 1a c4 9c a6 20 c6 a1 8b 20 10 a5 2e 1d 3f a4
       0.003387 -0.004654 0.00908 -0.01128 0.00887 -0.01978 0.00506 -0.01659
000070 96 1c 76 a4 f4 a9 93 a6 85 a2 a6 27 b0 23 b2 a7
       0.00448 -0.01743 -0.0465 -0.02568 -0.01273 0.02988 0.015015 -0.03006
000080 e5 9e ab 1b 2e 28 7f 28 98 9d 12 23 c5 25 0d a0
       -0.006733 0.003744 0.03265 0.03513 -0.005463 0.01381 0.02254 -0.00791
000090 6c 9e 02 22 1e 16 1b a3 4e 24 de 25 cc 24 f6 22
       -0.00627 0.011734 0.001493 -0.01388 0.01682 0.02292 0.01874 0.013596
0000a0 23 24 6f 99 79 99 19 1d 88 1e ec a2 6b a1 c7 a8
       0.01616 -0.002653 -0.002672 0.00498 0.00638 -0.01352 -0.01058 -0.03732
0000b0 4e 28 23 a9 47 a1 e4 a0 c7 a4 d5 a7 60 a9 4c a9
       0.03363 -0.04013 -0.01031 -0.00955 -0.01866 -0.0306 -0.042 -0.04138
0000c0 e2 a6 3a a7 5c a3 bb a9 4e 19 d5 a6 4e 25 70 a6
       -0.02689 -0.02823 -0.01437 -0.04477 0.00259 -0.02669 0.02072 -0.02515
0000d0 d1 a7 6f 26 c1 90 21 a6 10 a8 e4 92 8b 22 09 ac
       -0.03053 0.02513 -0.0005803 -0.02394 -0.03174 -0.000841 0.01278 -0.06305
0000e0 8a 27 8c a5 ea 16 29 90 6b 1e d9 25 1e 9d 44 09
       0.02945 -0.02167 0.001688 -0.000508 0.006268 0.02284 -0.004997 0.0001607
0000f0 f4 a5 c8 a7 c6 9e 40 a4 ea 27 e6 a5 c9 a7 8c 27
       -0.02325 -0.0304 -0.006615 -0.0166 0.03091 -0.02304 -0.03041 0.02948
000100 1b 99 ef a2 66 a9 c1 1c 4e 21 cc a8 ad 1b b4 24
       -0.002493 -0.01354 -0.04218 0.004642 0.01036 -0.03748 0.003748 0.01837
000110 06 2a f7 1c 3c 26 2d a0 8d 9c 38 a1 cd a9 23 18
       0.04706 0.00485 0.02435 -0.008156 -0.004444 -0.01019 -0.04532 0.00202
000120 5a a4 18 14 3b a8 50 a4 6b ab b9 9b 0b a3 3d a9
       -0.017 0.000999 -0.03305 -0.01685 -0.05795 -0.00377 -0.013756 -0.04092
000130 2d 28 55 a6 fb a6 32 24 ae 27 8f 26 82 a0 83 25
       0.03262 -0.02473 -0.02727 0.01639 0.03 0.02562 -0.008804 0.02153
000140 26 a9 6c a8 f0 a9 c9 29 17 a4 73 a8 23 25 74 19
       -0.04022 -0.03455 -0.0464 0.0452 -0.01598 -0.03476 0.02007 0.002663
000150 e7 25 53 21 14 a2 93 9d 98 2b fd a6 a4 28 57 22
       0.02306 0.0104 -0.01187 -0.005444 0.05933 -0.0273 0.03625 0.01238
000160 cf a2 ec 24 0d a0 07 18 5a a2 46 28 a5 8c 05 17
       -0.0133 0.01923 -0.00791 0.001966 -0.012405 0.0334 -0.0002835 0.001714
000170 e4 28 78 91 1e 22 d2 28 45 20 78 23 c7 28 50 2a
       0.0382 -0.0006676 0.01195 0.03766 0.00834 0.01459 0.03732 0.04932
000180 4b a0 b2 a6 fa 9c 3f 25 71 a2 39 98 ce a2 22 23
       -0.008385 -0.02615 -0.00486 0.0205 -0.01258 -0.002062 -0.01329 0.01393
000190 af 9b 96 1c 18 2a 05 20 95 1e 90 2a 05 a0 9e 23
       -0.003752 0.00448 0.0476 0.00785 0.006428 0.05127 -0.00785 0.01488
0001a0 24 9b ab a4 d5 9a 3e a0 d0 25 99 28 0f 1e e1 24
       -0.003487 -0.01823 -0.003336 -0.008286 0.0227 0.03592 0.005917 0.01906
0001b0 01 9d 96 22 01 17 34 1a d6 29 c7 a7 20 a6 a0 23
       -0.004887 0.01286 0.00171 0.003029 0.0456 -0.03038 -0.02393 0.01489
0001c0 25 a4 fa 12 e8 93 35 9e 80 a0 6b 23 6d 9d 50 a2
       -0.01619 0.0008516 -0.000965 -0.00606 -0.00879 0.01449 -0.0053 -0.01233
0001d0 42 94 9d a8 59 a0 4a 1c 14 8a 77 a3 fd a6 61 a8
       -0.0010395 -0.03604 -0.00849 0.00419 -0.0001855 -0.01458 -0.0273 -0.0342
0001e0 a7 a0 6a 24 4c a4 ee 1d 89 a5 2b 26 33 a4 95 a2
       -0.00909 0.01724 -0.01678 0.00579 -0.02162 0.0241 -0.0164 -0.012856
0001f0 1c a6 3f a5 e4 21 16 a8 2f 1f 49 aa 66 a7 89 a2
       -0.02386 -0.0205 0.011505 -0.03192 0.007015 -0.0491 -0.0289 -0.012764

functional_1/batch_normalization_3_1/batchnorm/mul:0 f4 [1, 128, 1, 1]
000000 16 c0 05 41 2c aa 90 40 87 71 e3 40 aa 40 ab 40
       8.359396 4.520773 7.1076083 5.3516436
000010 d9 0b da 40 82 e7 a5 40 a7 87 b0 40 fb 06 c3 40
       6.8139462 5.18451 5.516559 6.094602
000020 ba 3d c5 40 5f 37 00 41 63 72 c1 40 cf c3 99 40
       6.163785 8.013518 6.045213 4.8051524
000030 2a 2d 96 40 6d 1b 9b 40 83 af cd 40 fb 41 b3 40
       4.693013 4.847098 6.427675 5.6018043
000040 8a 39 96 40 49 c8 b9 40 25 d3 98 40 8e aa a3 40
       4.694524 5.805699 4.7757745 5.1145697
000050 d6 f2 8c 40 6d 5a 8a 40 e0 6d aa 40 1e a2 96 40
       4.404643 4.3235383 5.3259125 4.7072897
000060 e8 c4 a9 40 96 e7 b9 40 11 6d de 40 19 c3 96 40
       5.3052864 5.80952 6.950814 4.7113156
000070 0a 0c 9c 40 4d e4 73 40 17 d6 f1 40 77 be 0c 41
       4.8764696 3.8108094 7.557384 8.7965
000080 a3 c5 a8 40 5d 62 89 40 6d 1b f5 40 a2 e9 b0 40
       5.2741256 4.293257 7.659598 5.5285196
000090 3b 80 b5 40 45 e3 c7 40 ec 8e f5 40 c1 85 a0 40
       5.671903 6.246493 7.6736965 5.0163274
0000a0 fb f6 44 40 e6 46 88 40 a1 21 08 41 f0 60 b6 40
       3.0775745 4.2586546 8.50821 5.699333
0000b0 91 d8 f3 40 a4 7a 42 40 b2 a6 cd 40 c8 2d b2 40
       7.6201863 3.0387354 6.4265985 5.5680885
0000c0 96 61 e3 40 20 d1 0d 41 04 0f 73 40 76 2a a0 40
       7.1056623 8.863556 3.7977915 5.005183
0000d0 41 48 8b 40 0b 3d d8 40 12 52 f5 40 8a 15 02 41
       4.35257 6.7574515 7.6662683 8.130259
0000e0 24 40 7a 40 42 7a a0 40 6b 7a 7c 40 e7 73 84 40
       3.9101648 5.014924 3.9449718 4.139148
0000f0 91 85 a4 40 15 b4 8b 40 0f 69 b5 40 08 8d a1 40
       5.1413045 4.3657327 5.6690745 5.0484657
000100 b4 5c 6f 40 72 16 e7 40 a8 9b c9 40 72 e3 00 41
       3.7400331 7.22149 6.300251 8.055529
000110 af fb 6b 40 06 ea a7 40 b9 3a 01 41 c0 01 a1 40
       3.6872365 5.2473173 8.076837 5.0314636
000120 f0 df ba 40 40 b7 c7 40 7f e3 89 40 fa b0 99 40
       5.839836 6.2411194 4.3090205 4.8028536
000130 55 b6 b8 40 6d a3 cd 40 b5 9d be 40 33 bd 81 40
       5.7722573 6.4261994 5.9567513 4.0543456
000140 a8 1d 91 40 69 c1 9d 40 a0 c0 7b 40 34 7c 0e 41
       4.53487 4.9298596 3.933632 8.905323
000150 4f 6d a2 40 72 0a d1 40 f2 d2 a6 40 60 aa 98 40
       5.0758433 6.532525 5.21325 4.7707977
000160 03 d8 c9 40 60 31 d7 40 44 61 c3 40 e7 bf 8f 40
       6.3076186 6.724777 6.1056232 4.4921756
000170 a2 25 d2 40 b0 80 c5 40 50 46 10 41 c0 e6 25 41
       6.567094 6.171959 9.017166 10.368835
000180 6b a7 d8 40 a8 b1 f3 40 ae d8 05 41 d3 9d 96 40
       6.770437 7.6154366 8.3654 4.7067657
000190 2a e6 e5 40 1d b5 0a 41 05 5b f5 40 5b 19 0b 41
       7.184346 8.669217 7.667361 8.69369
0001a0 bf e9 ee 40 2d ed 76 40 18 90 eb 40 16 f7 05 41
       7.4660335 3.858226 7.3613396 8.372824
0001b0 bf 69 fe 40 93 a5 e7 40 ed 1c 03 41 19 a1 db 40
       7.9504085 7.2389617 8.194562 6.8634152
0001c0 de df e4 40 05 88 ca 40 1e 44 a1 40 fd cd c9 40
       7.1523275 6.329104 5.039565 6.306395
0001d0 ba a6 99 40 c6 f8 dc 40 ce 89 97 40 6a 0d 89 40
       4.8016024 6.905368 4.735572 4.2828875
0001e0 02 ee bb 40 94 ac fc 40 04 33 c6 40 72 e1 c7 40
       5.8728037 7.8960667 6.1937275 6.24627
0001f0 83 63 fb 40 b8 85 88 40 01 a6 f8 40 52 36 d0 40
       7.8558974 4.266323 7.770264 6.506631

functional_1/batch_normalization_2_1/batchnorm/mul:0 f4 [1, 128, 1, 1]
000000 5f 05 a5 40 07 55 64 40 04 a7 94 40 44 ba 57 40
       5.1569057 3.5676897 4.6453876 3.3707438
000010 fa cf 96 40 27 c9 a2 40 0b da 96 40 77 91 a2 40
       4.712888 5.0870547 4.7141166 5.080257
000020 68 b3 5c 40 16 a7 ad 40 57 18 6c 40 cc aa 8c 40
       3.44845 5.426646 3.6889856 4.395849
000030 16 61 91 40 85 d9 9e 40 48 64 9f 40 f4 e8 a2 40
       4.5431013 4.9640527 4.9809914 5.0909367
000040 a8 bd ad 40 07 ed a5 40 88 f9 97 40 8b 7f a9 40
       5.4294014 5.185184 4.7492104 5.296819
000050 21 45 aa 40 76 bd 80 40 73 0d 9f 40 53 a3 a7 40
       5.3209386 4.0231276 4.9703918 5.238687
000060 fe 48 85 40 b8 c0 99 40 4f 42 71 40 b0 b5 9f 40
       4.16516 4.804775 3.7696722 4.9909286
000070 54 03 9a 40 44 84 9f 40 ff 4f 9b 40 46 fa 9c 40
       4.8129063 4.9848957 4.853515 4.905551
000080 86 e3 74 40 cd 82 93 40 80 25 a7 40 26 ec a2 40
       3.826387 4.609717 5.2233276 5.0913267
000090 db d7 6c 40 c0 5f a1 40 a0 74 9a 40 bd f2 95 40
       3.7006748 5.042938 4.8267365 4.685881
0000a0 27 99 9d 40 b1 25 62 40 bd 70 aa 40 ba 33 a2 40
       4.9249454 3.5335505 5.326262 5.0688143
0000b0 43 4b a3 40 46 04 9d 40 ce 0e 96 40 9f 40 a2 40
       5.102937 4.9067717 4.689307 5.0703883
0000c0 85 9d a9 40 33 6c 98 40 5a 03 68 40 1a c5 80 40
       5.3004785 4.763208 3.6252046 4.0240602
0000d0 86 b9 9b 3f 72 bf 9e 40 d3 81 8d 40 4d d2 5d 40
       1.2165992 4.96087 4.4220977 3.4659607
0000e0 a5 84 a3 40 e5 54 78 40 e9 6f 97 40 65 7c 6d 40
       5.109942 3.8801816 4.732411 3.7107174
0000f0 f4 cf 8b 40 ff 62 92 40 12 81 96 40 5b 68 8d 40
       4.369135 4.5745845 4.7032557 4.4189887
000100 75 78 19 40 9a f1 ab 40 c7 82 9b 40 0e a6 6e 40
       2.397977 5.3732424 4.859714 3.7288852
000110 7e 72 a0 40 76 d0 91 40 46 42 6d 40 61 22 9c 40
       5.013976 4.556697 3.70717 4.8791966
000120 62 8f 10 40 cc 2a 9b 40 e9 e7 a0 40 ef 64 97 40
       2.2587514 4.848974 5.0283093 4.731071
000130 94 4f 86 40 cb 29 92 40 f8 74 4e 40 61 81 91 40
       4.197214 4.5676017 3.2258892 4.5470433
000140 b1 76 87 40 40 38 88 40 dd 33 a7 40 fb d2 68 40
       4.2332387 4.2568665 5.225081 3.6378772
000150 6b 7e ac 40 1e ed 5a 40 9b be 7a 40 9c fd 68 40
       5.390432 3.4207225 3.9178836 3.640479
000160 c7 8e a8 40 a2 ab 3d 40 1e 36 a7 40 e7 ee 9d 40
       5.267429 2.9636006 5.225356 4.935413
000170 a6 4b 8e 40 ce 05 98 40 a4 d1 89 40 79 d7 a2 40
       4.4467344 4.7507086 4.306841 5.088803
000180 44 8d a3 40 d5 ac 9f 40 81 82 a9 40 11 a8 9f 40
       5.1109943 4.9898477 5.2971807 4.989266
000190 6d e5 a3 40 53 30 a3 40 1b 21 9a 40 ae 96 7e 40
       5.121756 5.099649 4.816541 3.9779468
0001a0 19 1a 8a 40 20 de a0 40 29 4a 89 40 45 79 a5 40
       4.3156857 5.027115 4.2903028 5.1710534
0001b0 0e 4c 97 40 75 29 8e 40 57 ce 9c 40 67 5e ae 40
       4.728034 4.4425607 4.900188 5.4490237
0001c0 31 39 a4 40 4e 8f 92 40 e8 e2 a3 40 04 1f 8d 40
       5.1319814 4.5799932 5.1214485 4.410036
0001d0 87 8b e9 3f 24 ef 90 40 3c 08 a9 40 80 99 69 40
       1.8245705 4.529192 5.282255 3.649994
0001e0 8c a4 98 40 e0 5b 9d 40 45 12 9e 40 ba 80 9f 40
       4.7700863 4.917465 4.93973 4.9844637
0001f0 a6 47 9b 40 c4 3a a3 40 6e ee a0 40 e1 14 92 40
       4.852496 5.1009235 5.029105 4.5650487

functional_1/batch_normalization_1_2/batchnorm/mul:0 f4 [1, 64, 1, 1]
000000 25 ee 80 40 0c 48 79 40 6a 4a 81 40 0c 92 75 40
       4.0290704 3.8950224 4.0403337 3.837039
000010 3b d6 5f 40 c6 21 89 40 11 b2 72 40 f8 55 44 40
       3.4974506 4.2853727 3.7921183 3.067747
000020 28 6e 0f 40 8f 03 65 40 2b fc 87 40 68 e9 47 40
       2.2410984 3.5783422 4.249532 3.123621
000030 fa b9 6e 40 78 94 5b 40 cb 7b 5f 40 a7 b3 8b 40
       3.730101 3.4309368 3.4919307 4.36568
000040 f0 1d 6e 40 53 95 88 40 60 db 81 40 8d 3a fe 3f
       3.7205772 4.268228 4.058029 1.9861618
000050 93 e5 85 40 75 fa 7d 40 0e f7 7f 40 18 27 5a 40
       4.184274 3.9684117 3.999454 3.408636
000060 e8 77 6f 40 44 c9 39 40 4c 92 6a 40 81 f9 7e 40
       3.7416935 2.9029093 3.6651793 3.9839785
000070 22 57 62 40 28 1d 8e 40 cc 9f 72 40 26 9f 8b 40
       3.5365682 4.441059 3.7910032 4.3631773
000080 1f bf 20 40 52 44 6c 40 ae b8 5e 40 6c 4d 83 40
       2.511665 3.69167 3.480022 4.103201
000090 ab 02 78 40 db 52 49 40 73 53 8a 40 9b a4 90 40
       3.8751628 3.145682 4.3226867 4.5200934
0000a0 a4 db 67 40 c3 88 67 40 d3 da 4a 40 86 76 20 40
       3.6227808 3.6177223 3.169606 2.507234
0000b0 dd 61 70 40 f2 84 6d 40 6e f0 85 40 a4 83 2d 40
       3.755973 3.7112393 4.1855993 2.7111597
0000c0 9d c9 33 40 43 74 39 40 ef 44 3e 40 33 c1 7c 40
       2.8091805 2.897721 2.9729574 3.949292
0000d0 5f d8 1b 40 7e 1a 6e 40 17 7b 69 40 5a 23 88 40
       2.4350812 3.720367 3.6481378 4.2543154
0000e0 8c 43 75 40 89 4c 84 40 ca 21 67 40 aa a6 02 40
       3.8322477 4.1343427 3.6114373 2.0414224
0000f0 e4 47 85 40 dd ac 67 40 18 62 7d 40 76 a5 5a 40
       4.1650257 3.6199257 3.9591122 3.416349

functional_1/batch_normalization_1/batchnorm/mul:0 f4 [1, 64, 1, 1]
000000 88 9a 84 41 32 ce 96 41 51 f7 9e 41 a3 2d 8d 41
       16.575455 18.850681 19.87076 17.647284
000010 13 e2 9b 41 f1 64 8d 41 b7 2b 88 41 1e 0b 9e 41
       19.485388 17.674288 17.021345 19.755428
000020 2f 95 8b 41 41 b2 8c 41 44 58 9c 41 d4 16 97 41
       17.447844 17.587038 19.543098 18.886147
000030 38 6d 9d 41 02 a1 72 41 7b 51 8a 41 32 37 aa 41
       19.67833 15.164309 17.289785 21.27695
000040 71 39 85 41 bb ca 93 41 1b 4b 92 41 49 5c a4 41
       16.653048 18.47399 18.286673 20.545061
000050 8a e5 7d 41 7a 52 4e 41 ff b8 7a 41 4d 04 92 41
       15.86854 12.895136 15.670165 18.2521
000060 2f 2d 94 41 54 ae 72 41 5f 86 93 41 6d b3 96 41
       18.522062 15.167561 18.44061 18.83761
000070 7f 13 88 41 70 e7 87 41 0d d8 93 41 fd 64 8a 41
       17.00952 16.988007 18.480494 17.29931
000080 cb 44 9e 41 25 83 97 41 ee 14 81 41 f5 13 9a 41
       19.78359 18.939035 16.13522 19.259745
000090 fa 38 95 41 81 c6 92 41 63 0c 91 41 09 73 78 41
       18.65282 18.346926 18.131048 15.528085
0000a0 31 83 99 41 cb 75 8e 41 6f 9f 8d 41 e5 8b 90 41
       19.189058 17.807516 17.702848 18.068308
0000b0 d2 bf 99 41 08 a2 8b 41 fa 27 a7 41 11 35 9e 41
       19.218662 17.454117 20.89452 19.775911
0000c0 ef a2 97 41 ca a1 97 41 ec 09 95 41 d8 4b 93 41
       18.954557 18.953999 18.629845 18.412033
0000d0 69 da 75 41 35 7c 98 41 cb 3b 91 41 b4 3e 76 41
       15.365823 19.060648 18.154196 15.390308
0000e0 a2 69 8f 41 17 4e 93 41 2c 8e a0 41 bb 3c 89 41
       17.926579 18.41313 20.06942 17.154654
0000f0 6b fd 98 41 00 b6 85 41 3c 7d 97 41 cb 1e 96 41
       19.12374 16.713867 18.93615 18.765036

const_fold_opt__73 f4 [1, 64, 1, 1]
000000 8d be 62 be 4d 2d d2 3d c2 ab 35 3e b5 a9 90 bd
       -0.22143002 0.10262547 0.17741302 -0.07063619
000010 90 52 3a bf 7f be 18 3e ac 82 58 3e 64 29 a9 3e
       -0.7278223 0.14916418 0.21143597 0.3303939
000020 60 a8 8a bd 0b af 2d be 36 92 b7 3e bf 04 96 bd
       -0.06770396 -0.16961305 0.35853738 -0.07325124
000030 b8 4e 7d 3e 5c 9b 3f bc 70 78 9b bb 09 19 e3 3d
       0.2473706 -0.011694755 -0.004744582 0.110887595
000040 98 2b a9 3e 10 f8 52 3e e8 b9 c1 bc 6a 29 03 3f
       0.33041072 0.20602441 -0.023648217 0.5123507
000050 d6 62 56 3e a8 51 34 bc 0e 81 9c be 18 f3 1b 3d
       0.2093614 -0.0110057965 -0.3056721 0.03807363
000060 be 23 20 3e 1f 81 27 3e ce 42 41 3e 8c de fd 3c
       0.15638635 0.1635785 0.1887314 0.030989908
000070 fb fa cc 3e 16 fa d8 3e 85 72 80 3e fa 32 53 3e
       0.40035233 0.423783 0.2508737 0.20624915
000080 65 53 5e 3e 22 6f 20 be aa 6e b5 3d f2 43 0e 3e
       0.217115 -0.15667394 0.08858998 0.13893107
000090 7e 0b 1e 3e c6 2d 95 3e ca db 5e be 80 4d 1d bc
       0.15434071 0.29136485 -0.2176353 -0.009600997
0000a0 69 83 42 3e df a5 82 be d5 bb 8e bd b9 8f 97 3e
       0.18995441 -0.25517175 -0.0696942 0.2960184
0000b0 27 73 e7 3d 73 09 ed 3e c8 cb 75 3e 79 c0 85 3e
       0.113012604 0.46296272 0.24003518 0.26123407
0000c0 f6 7c 95 3e 95 ec a3 3e 5c ff 8f 3e 06 6d bd 3e
       0.291969 0.32016435 0.2812451 0.3699724
0000d0 dd 74 13 3f ad 48 da bd 3c c8 a9 3e cb cf 92 3e
       0.57600194 -0.10658393 0.3316058 0.28674158
0000e0 7b c5 01 be db 4e a3 bd 70 55 91 3e 48 71 4f be
       -0.12672989 -0.07974025 0.28385496 -0.20258057
0000f0 e5 10 23 3e 8d 6d 23 be e7 b9 b2 3d f0 4a 52 bd
       0.15924414 -0.15959759 0.08726864 -0.051340997

const_fold_opt__71 f4 [1, 128, 1, 1]
000000 44 49 51 bf b2 fe 77 3f 49 56 c0 3c 65 7d 7a bf
       -0.8175242 0.9687301 0.023478644 -0.97847587
000010 1a bf 24 bf 0a 8f 5e 3f 68 e9 71 3f 85 3f 94 bf
       -0.643541 0.8693701 0.94496775 -1.1581885
000020 cd 78 2a bf 8c 96 92 3f 46 b4 67 3f 52 46 5d be
       -0.6659058 1.1452193 0.9050945 -0.21608856
000030 04 6f 0a bf 47 c7 26 3f b7 fb e7 bd 57 e2 12 3e
       -0.54075646 0.65147823 -0.11327308 0.14344154
000040 df 7c 46 be 0e 32 91 bf 26 f7 e3 3e 51 68 11 3f
       -0.19383572 -1.13434 0.44524497 0.567998
000050 92 23 d4 3f 48 ed f7 3f 90 55 ee be 11 0e 24 bf
       1.6573355 1.9369287 -0.46549654 -0.64083964
000060 1c 33 91 3f 37 b9 c0 bf bd 23 01 3f 44 8a 55 be
       1.1343722 -1.5056523 0.5044516 -0.20853525
000070 67 5d d7 3d ee 41 28 bf 84 11 38 3f 3b 33 e9 3d
       0.10515862 -0.657256 0.71901727 0.113867246
000080 25 91 89 3d 10 32 28 40 67 28 4a bf fe 8c 9c 3f
       0.06717137 2.6280556 -0.789679 1.2230527
000090 f4 73 18 3f 23 70 9d 3e 1a 03 87 bf ac 80 22 bf
       0.5955193 0.30749616 -1.0547822 -0.6347759
0000a0 b2 98 e1 be 79 04 4a bf ab 28 df 3f 90 ef c4 3e
       -0.4406181 -0.78913075 1.7434286 0.38464022
0000b0 c8 b7 3f 40 d2 2a 60 3f 4c 7a d6 3e b1 a2 cc 3f
       2.995592 0.8756534 0.4189018 1.598715
0000c0 39 6c d0 3e 99 c0 99 bf 28 f0 c9 bd f1 6a 43 bf
       0.40707567 -1.2011901 -0.09860259 -0.76335055
0000d0 ce 98 44 3f c5 b1 08 bf 47 85 d7 3f 24 5d be 3e
       0.7679566 -0.53396255 1.6837548 0.37180436
0000e0 27 98 dc 3e bf e5 25 3e 31 73 53 be 22 9b ef be
       0.43084833 0.16200922 -0.20649411 -0.46798044
0000f0 9b bb 74 3f 9d 7e 12 bd e1 7f 44 3f 26 d3 67 3f
       0.95598763 -0.03576528 0.7675763 0.9055656
000100 8e 68 06 3f 27 f3 06 3f 46 41 fa be 05 51 76 bf
       0.5250329 0.5271477 -0.48877925 -0.96217376
000110 3f 68 03 3f 92 ea 93 3f 81 44 66 be df 51 02 bf
       0.5133094 1.155596 -0.2248707 -0.50906175
000120 7c d1 15 bf d8 6e 93 3f 2f 17 e3 be f2 c9 c4 3e
       -0.5852277 1.1518202 -0.44353625 0.38435322
000130 2f 1d d1 be fb e7 bd 3e c4 5a 14 bc 15 2b 71 be
       -0.40842578 0.3709105 -0.009054843 -0.2355159
000140 cb e1 4f bf 5f a6 91 be 01 79 1d bd 50 cd b2 3f
       -0.8120391 -0.28447244 -0.038445476 1.3968906
000150 90 46 13 bf d9 d3 14 bd d6 95 06 3f e2 41 5e 3e
       -0.57529545 -0.036334846 0.5257238 0.2170482
000160 ab 27 90 be 69 78 91 3e c6 e4 21 3f 28 34 20 3f
       -0.28155264 0.28412178 0.63239706 0.62579584
000170 77 12 bf bf d4 3c 8e bd a4 69 a6 bf b2 1c ed 3e
       -1.492751 -0.06945196 -1.3000989 0.46310955
000180 76 6e 3c 3f a3 ac 02 3f 50 cd 3a 3d 74 98 4b be
       0.7360605 0.5104467 0.045605958 -0.19882375
000190 51 9e 9a bf c0 b6 a6 3f 18 8b e0 3e 72 94 9d be
       -1.2079564 1.3024521 0.4385612 -0.30777317
0001a0 8f 7b ec 3f 94 f2 a4 3f a8 93 76 bf 75 ae 3e bf
       1.8475207 1.2886529 -0.96319056 -0.7448495
0001b0 55 53 c4 be 5a e2 28 be 06 5e 0e 3e f0 e6 39 3f
       -0.38344827 -0.16492596 0.13903055 0.7261801
0001c0 9b 8c c9 be 34 b2 78 3f 8f 90 26 bf 7f 6a 5a 3f
       -0.39365086 0.97146916 -0.6506433 0.8531875
0001d0 05 e5 73 bf 89 98 91 3d eb 2e c8 3f fa 9d 00 bf
       -0.9527133 0.07109172 1.5639318 -0.50241053
0001e0 f1 47 c3 be a0 3b 04 bf 77 40 98 3e bd f7 88 3e
       -0.38140824 -0.5165348 0.29736683 0.2675151
0001f0 95 71 27 3f 64 aa 95 be bb 22 22 bf 52 37 6f 3f
       0.6540769 -0.2923156 -0.63334244 0.9344379
