python/utils/model.onnx (onnx, 192191 bytes, 40 tensors)

model/separable_conv2d/separable_conv2d/Cast_1:0 f2 [64, 64, 1, 1]
0.2423 0.228 0.218 0.1044 -0.2866 0.3464 -0.312 -0.06885
0.14 0.003096 -0.156 0.02818 -0.2603 0.1411 0.01747 0.0889
0.11365 -0.2366 -0.2134 -0.2289 0.03775 0.002468 -0.2295 -0.1033
0.08044 0.1616 0.00938 0.3552 -0.03075 -0.2502 0.2157 -0.0418
0.2483 -0.1725 -0.1819 -0.03778 -0.009895 0.0299 -0.1846 0.1359
-0.1378 -0.1976 0.1737 0.0301 -0.1797 0.1617 0.2047 -0.2507
-0.242 -0.1263 0.02519 0.296 0.0804 0.02905 0.3354 0.1092
0.2279 0.2184 0.1538 -0.0468 -0.1387 -0.2852 0.1813 0.10535
-0.0646 0.2593 -0.207 -0.07916 -0.1771 -0.1398 0.1915 -0.2346
0.1256 -0.3193 -0.10284 -0.0993 0.2695 -0.121 0.2502 -0.1034
-0.10925 0.1494 0.1853 0.001839 0.003933 0.1497 0.1963 0.1584
0.0383 -0.2676 0.3364 -0.0966 0.1853 0.1903 0.02142 -0.334
-0.1385 0.2078 0.1179 -0.125 0.185 -0.2491 0.2256 -0.01831
0.1088 -0.0343 -0.3071 -0.1804 0.03119 -0.1484 0.3103 0.0643
-0.1978 -0.08356 0.312 0.008705 0.03665 -0.185 -0.1368 -0.03607
-0.1068 -0.2261 0.306 -0.1259 0.0631 -0.02747 -0.0686 -0.1227
0.4453 0.318 0.1945 0.1544 -0.2092 0.197 -0.3352 -0.05905
0.1354 -0.258 -0.321 0.1158 -0.2769 0.0299 0.01768 0.02681
0.10706 -0.3247 -0.1696 -0.0991 -0.04398 0.04193 -0.0926 0.0803
0.06744 0.06946 0.1337 0.2122 -0.04526 -0.2045 0.26 -0.1401
0.11444 -0.10785 -0.1954 -0.1572 0.02397 0.0655 -0.1659 -0.02945
0.09045 -0.03473 0.1298 0.01228 -0.1669 0.04132 0.269 -0.1412
-0.1072 -0.01319 0.1881 0.3125 0.003986 0.02013 0.3855 -0.0846
0.1486 0.301 0.07056 -0.2241 -0.01182 -0.193 0.2352 0.1403
-0.2302 -0.1718 -0.3179 -0.1924 -0.0443 -0.3074 0.2289 -0.283
-0.03906 -0.1304 -0.1131 -0.1361 0.3013 -0.1221 0.2091 -0.1174
-0.1459 0.1938 0.288 0.2028 0.2612 0.1509 0.3298 0.1447
-0.0835 -0.2842 0.246 -0.1653 0.05856 0.282 -0.03232 -0.1774
-0.279 0.3599 0.1542 0.1866 0.05725 -0.2708 0.2452 -0.3308
0.07544 0.0622 -0.1492 -0.0893 0.0812 -0.1986 0.0138 0.164
-0.01421 0.174 -0.0624 -0.1753 -0.01855 -0.292 -0.2054 0.08014
-0.287 -0.2229 0.1108 -0.2383 0.06107 0.1047 -0.1409 -0.0686
00000000: c133 4c33 fa32 ae2e 96b4 8b35 feb4 68ac
00000010: 7b30 571a feb0 3727 2ab4 8430 7924 b12d
00000020: 462f 92b3 d4b2 53b3 d528 0e19 58b3 9cae
00000030: 262d 2c31 cd20 af35 dfa7 01b4 e732 5aa9
00000040: f233 85b1 d2b1 d6a8 11a1 a827 e8b1 5930
00000050: 69b0 53b2 8f31 b527 c0b1 2d31 8d32 03b4
00000060: beb3 0bb0 7326 bc34 252d 7027 5e35 fd2e
00000070: 4b33 fd32 ec30 fea9 70b0 90b4 cd31 be2e
00000080: 22ac 2634 a0b2 11ad abb1 79b0 2132 82b3
00000090: 0530 1cb5 95ae 5bae 5034 beaf 0134 9eae
000000a0: feae c830 ee31 8817 071c ca30 4832 1231
000000b0: e728 48b4 6235 2fae ee31 1732 7c25 58b5
000000c0: 6fb0 a632 8c2f 00b0 ec31 f9b3 3833 b0a4
000000d0: f72e 64a8 eab4 c6b1 fc27 c0b0 f734 1d2c
000000e0: 54b2 59ad fe34 7520 b128 ecb1 61b0 9ea8
000000f0: d6ae 3cb3 e534 07b0 0a2c 08a7 64ac daaf
00000100: 2037 1735 3932 f130 b2b2 4e32 5db5 8fab
00000110: 5530 21b4 23b5 692f 6eb4 a827 8724 dd26
00000120: da2e 32b5 6db1 58ae a1a9 5e29 edad 242d
00000130: 512c 722c 4730 ca32 cba9 8bb2 2934 7cb0
00000140: 532f e7ae 41b2 08b1 2326 312c 4fb1 8aa7
00000150: ca2d 72a8 2730 4a22 57b1 4a29 4e34 85b0
00000160: dcae c1a2 0532 0035 151c 2725 2b36 6aad
00000170: c130 d134 842c 2cb3 0da2 2db2 8733 7d30
00000180: 5eb3 7fb1 16b5 28b2 aca9 ebb4 5333 87b4
00000190: 00a9 2cb0 3daf 5bb0 d234 d0af b132 83af
000001a0: abb0 3432 9c34 7d32 2e34 d430 4735 a130
000001b0: 58ad 8cb4 df33 4ab1 7f2b 8334 23a8 adb1
000001c0: 77b4 c235 ef30 f931 542b 55b4 d933 4bb5
000001d0: d42c f62b c6b0 b7ad 322d 5bb2 1123 3f31
000001e0: 47a3 9131 fdab 9cb1 c0a4 acb4 93b2 212d
000001f0: 98b4 22b3 172f a0b3 d12b b32e 82b0 64ac

model/separable_conv2d/BiasAdd/Cast:0 f2 [64]
0.1906 0.1233 0.0676 0.01595 0.292 0.2026 0.418 -0.008736
-0.001077 -0.04105 0.03433 0.0785 0.1906 0.381 0.10114 0.03833
-0.04596 0.3296 0.1357 0.0695 0.0838 0.3586 0.08923 0.0753
0.2141 0.06216 0.01054 0.2054 0.2079 0.1376 0.06525 0.06122
-0.06085 0.3235 0.357 0.1225 0.09357 0.12067 0.11597 0.09503
0.2686 0.0402 0.2096 0.0864 0.0924 -0.03494 0.324 0.087
0.4412 -0.00938 0.2493 0.08606 0.1289 0.1161 0.0509 0.004105
0.04877 0.2715 0.1808 0.1982 0.03412 0.02345 0.3984 0.01085
00000000: 1932 e42f 542c 1524 ac34 7c32 b036 79a0
00000010: 6994 41a9 6528 062d 1932 1936 792e e828
00000020: e2a9 4635 5830 732c 5d2d bd35 b62d d22c
00000030: da32 f52b 6521 9332 a732 6730 2d2c d62b
00000040: caab 2d35 b635 d72f fd2d b92f 6c2f 152e
00000050: 4c34 2529 b532 882d ea2d 79a8 2f35 912d
00000060: 0f37 cda0 fa33 822d 2030 6e2f 842a 341c
00000070: 3e2a 5834 c931 5832 5e28 0126 6036 8e21

model/dense_5/MatMul/ReadVariableOp:0 f4 [32, 1]
-3.7607115e-11 0.42190245 0.4202097 0.42753223 -0.42264163 -0.40383452 -0.40705082 -0.4301885
0.42643553 -0.397394 0.42223638 -0.42324126 -0.4240109 0.41446623 -0.43039474 3.2415828e-09
-0.42942634 0.40708137 -0.0007291565 0.431729 -0.42337778 0.00032195763 6.261955e-09 0.41795984
-0.42577583 0.4256092 0.4156724 -0.00046397862 0.41539 -0.40647855 -0.010635973 -0.43190658
00000000: d965 25ae 9903 d83e ba25 d73e 81e5 da3e
00000010: 7c64 d8be 66c3 cebe f768 d0be ab41 dcbe
00000020: c255 da3e 3a77 cbbe 5e2f d83e 14b3 d8be
00000030: f517 d9be eb34 d43e b35c dcbe 87c2 5e31
00000040: c5dd dbbe f86c d03e dd24 3fba 950b dd3e
00000050: f9c4 d8be 6ccc a839 bd28 d731 d5fe d53e
00000060: 4aff d9be 73e9 d93e 03d3 d43e 2842 f3b9
00000070: 00ae d43e f51d d0be 8142 2ebc dc22 ddbe

model/dense_4/MatMul/Cast:0 f2 [128, 32]
0.0 -0.0001055 -0.0001218 -0.0001187 9.74e-05 8.91e-05 9.03e-05 9.77e-05
-0.0001266 8.273e-05 -0.00011146 0.0001074 9.22e-05 -0.000127 0.0001104 -0.0
9.346e-05 -0.0001143 9.5e-07 -0.00011617 9.8e-05 -4e-07 -0.0 -0.0001175
0.00011265 -0.0001239 -0.0001131 6e-07 -0.0001164 0.0001001 1.05e-05 0.0001043
0.0 0.0001956 0.000192 0.0001895 -0.0001476 -0.0001372 -0.0001396 -0.0001478
0.0001935 -0.0001371 0.0001912 -0.0001432 -0.0001416 0.0001949 -0.0001391 0.0
-0.0001361 0.0001904 -1.55e-06 0.0001963 -0.0001378 7e-07 0.0 0.0001931
-0.0001477 0.0001918 0.000189 -9.5e-07 0.0001854 -0.0001435 -1.68e-05 -0.0001452
0.0 0.0004244 0.0004063 0.0003986 -0.0004027 -0.0003462 -0.0003202 -0.0004113
0.000456 -0.0003169 0.0004554 -0.000349 -0.0003526 0.0004385 -0.000308 0.0
-0.0003338 0.0004241 -3.04e-06 0.0004475 -0.000355 1.43e-06 0.0 0.0004563
-0.0003674 0.0003982 0.0004346 -1.97e-06 0.0004554 -0.000376 -3.564e-05 -0.000365
-0.0 -0.002924 -0.002705 -0.00311 0.003317 0.003172 0.003307 0.003262
-0.00308 0.003319 -0.003082 0.003107 0.003475 -0.002548 0.003305 -0.0
0.003174 -0.002792 2.056e-05 -0.002989 0.003075 -9.3e-06 -0.0 -0.00298
0.003597 -0.002916 -0.002901 1.323e-05 -0.002783 0.003252 0.0002577 0.003574
-0.0 -0.011375 -0.01128 -0.01126 0.010155 0.01147 0.00993 0.010155
-0.01098 0.01114 -0.012184 0.01075 0.010635 -0.01143 0.01037 -0.0
0.00937 -0.01232 8.68e-05 -0.01129 0.01022 -3.69e-05 -0.0 -0.0115
0.01072 -0.012245 -0.01234 5.52e-05 -0.012146 0.00886 0.0010195 0.00993
-0.0 -0.0001799 -0.0001903 -0.0001913 0.0001377 0.0001208 0.0001286 0.0001277
-0.0001968 0.0001203 -0.0001788 0.0001448 0.0001287 -0.0001954 0.0001506 -0.0
0.000128 -0.0001935 1.43e-06 -0.000197 0.0001342 -6.6e-07 -0.0 -0.000183
0.0001353 -0.0001994 -0.0001792 9.5e-07 -0.0001847 0.0001309 1.544e-05 0.0001326
0.0 -0.0001124 -0.0001318 -0.0001196 0.00010526 0.00010043 0.0001035 9.65e-05
-0.0001295 8.917e-05 -0.00011605 0.0001076 9.47e-05 -0.0001315 0.0001172 -0.0
9.73e-05 -0.0001221 1e-06 -0.0001266 9.954e-05 -5e-07 -0.0 -0.0001248
0.0001078 -0.0001229 -0.000116 6.6e-07 -0.0001217 9.95e-05 1.07e-05 0.00010836
0.0 -6.71e-05 -7.7e-05 -7.1e-05 6.33e-05 4.49e-05 5.525e-05 6.586e-05
-8.11e-05 4.584e-05 -6.974e-05 6.1e-05 5e-05 -7.09e-05 8.01e-05 -0.0
5.1e-05 -7.415e-05 5.4e-07 -7.9e-05 6.384e-05 -2.4e-07 -0.0 -7.343e-05
7.83e-05 -7.64e-05 -7.33e-05 3.6e-07 -6.986e-05 5.895e-05 5.7e-06 7.075e-05
00000000: 0000 ea86 fb87 c787 6206 d705 eb05 6706
00000010: 2688 6c05 4e87 0a07 0b06 2988 3c07 0080
00000020: 2006 7e87 1000 9d87 6c06 0780 0080 b387
00000030: 6207 0f88 6a87 0a00 a187 8f06 b000 d606
00000040: 0000 690a 4b0a 360a d688 7f88 9388 d888
00000050: 570a 7e88 440a b188 a488 630a 8f88 0000
00000060: 7688 3d0a 1a80 6f0a 8488 0c00 0000 540a
00000070: d788 490a 310a 1080 130a b488 1a81 c288
00000080: 0000 f40e a80e 880e 998e ac8d 3f8d bd8e
00000090: 790f 318d 760f b88d c78d 2f0f 0c8d 0000
000000a0: 788d f30e 3380 550f d18d 1800 0000 7a0f
000000b0: 058e 860e 1f0f 2180 760f 298e 5682 fb8d
000000c0: 0080 fd99 8a99 5f9a cb1a 7f1a c61a ae1a
000000d0: 4f9a cc1a 509a 5d1a 1e1b 3899 c51a 0080
000000e0: 801a b899 5901 1f9a 4c1a 9c80 0080 1a9a
000000f0: 5e1b f999 f199 de00 b399 a91a 390c 521b
00000100: 0080 d3a1 c6a1 c4a1 3321 df21 1621 3321
00000110: 9fa1 b421 3da2 8121 7221 daa1 4f21 0080
00000120: cc20 4fa2 b005 c8a1 3c21 6b82 0080 e3a1
00000130: 7d21 45a2 51a2 9e03 38a2 8920 2d14 1621
00000140: 0080 e589 3c8a 458a 8308 eb07 3708 2f08
00000150: 738a e207 dc89 bf08 3808 678a ef08 0080
00000160: 3208 578a 1800 758a 6608 0b80 0080 ff89
00000170: 6f08 898a df89 1000 0d8a 4a08 0301 5808
00000180: 0000 5e87 5288 d787 e606 9506 c806 5306
00000190: 3e88 d805 9b87 0d07 3506 4f88 ae07 0080
000001a0: 6006 0088 1100 2688 8606 0880 0080 1788
000001b0: 1107 0788 9a87 0b00 fa87 8506 b400 1a07
000001c0: 0000 6684 0c85 a784 2604 f102 9f03 5104
000001d0: 5185 0103 9284 ff03 4703 a684 4005 0080
000001e0: 5803 dc84 0900 2d85 2f04 0480 0080 d084
000001f0: 2205 0285 ce84 0600 9484 dd03 6000 a304

model/dense_4/BiasAdd/Cast:0 f2 [32]
6e-08 0.00079 0.001064 0.001603 -0.00388 -0.004227 -0.004375 -0.0055
0.001578 -0.002691 -0.0001295 -0.003294 -0.004726 0.00059 -0.003414 6e-08
-0.003933 2.97e-05 4e-05 -0.0004926 -0.00436 -2.5e-06 -6e-08 0.001008
-0.003721 0.001579 0.000682 3.08e-05 0.001418 -0.003853 -8.53e-05 -0.00282
00000000: 0100 7912 5c14 9116 f29b 549c 7b9c a29d
00000010: 7716 8399 3e88 bf9a d79c d510 fe9a 0100
00000020: 079c f201 9f02 0990 779c 2a80 0180 2114
00000030: 9f9b 7816 9611 0502 cf15 e49b 9785 c699

model/dense_3/MatMul/Cast:0 f2 [128, 128]
8.094e-05 -0.00013 -0.0002575 0.001405 0.0055 0.000129 8.094e-05 4.25e-05
-0.02411 0.005272 0.001142 5.32e-05 -0.001609 0.005314 -0.0001315 -1.496e-05
0.003553 5.9e-06 0.005287 0.001429 0.005398 2.8e-06 -0.002127 6.39e-05
0.0001068 -0.02414 9.227e-05 -3.016e-05 0.0006065 -2.193e-05 -0.021 -0.01598
-8.9e-06 7.22e-05 -0.002108 0.001207 0.00533 -0.00147 0.0001618 6.604e-05
-0.0001117 0.001116 0.005478 1.04e-05 -0.0001489 -0.0002002 -6.014e-05 0.0001173
0.00508 -7.83e-05 3.58e-05 0.00527 -8.82e-05 2.58e-05 -0.02315 -6.51e-05
4.625e-05 0.001647 -0.02428 -0.02455 5.31e-05 -0.001529 -0.02344 0.002396
-0.001722 0.000123 -0.02344 2.18e-05 -0.01988 3.89e-05 0.005405 -8.25e-05
-4.673e-05 -0.000129 0.00114 -5.233e-05 -9.155e-05 -5.05e-05 -0.02284 0.0009274
-9.2e-06 0.002981 0.0001224 -5.853e-05 4.876e-05 -2.3e-06 0.005375 0.001056
-0.02428 0.005135 0.001202 -0.0239 9.394e-05 0.00010055 0.001586 -0.0001173
0.00541 0.005424 -0.00010854 -0.001918 -0.00289 -0.0001421 -4.2e-05 0.0001345
-0.001058 -0.0002904 0.000294 -0.0001304 -4.095e-05 0.00014 0.0009584 -7.045e-05
5.01e-05 -7.47e-05 -0.00214 -0.02327 -0.0003693 0.000507 0.001294 2.92e-05
5.424e-05 0.005608 0.000707 -0.002989 -0.0002068 -5.984e-05 -8.68e-05 0.000746
1.43e-06 -1.05e-05 9.26e-05 -0.002293 -0.02626 3.344e-05 -1.4e-06 1.26e-05
-0.01289 -0.02444 -0.001592 1.43e-06 0.0005836 -0.02528 -1.293e-05 2.533e-05
-0.01177 -3.54e-05 -0.02551 -0.001743 -0.02484 -4.977e-05 0.0007915 -1.26e-05
2.676e-05 -0.013535 1.99e-05 1.454e-05 -0.0006695 -7.1e-06 -0.01023 -0.006325
2.503e-05 3.69e-05 0.0004165 -0.001662 -0.02592 0.0004385 4.554e-05 -2.26e-06
-1.83e-05 -0.00251 -0.02556 -1.657e-05 -1.633e-05 0.0001776 1.127e-05 -1.425e-05
-0.01811 -9.83e-06 -1.127e-05 -0.02556 1.1e-06 -2.486e-05 -0.0125 -1e-07
8.4e-06 -0.002462 -0.01375 -0.01356 -8.17e-06 0.000578 -0.012566 -0.005665
0.000724 1.06e-05 -0.012794 1.09e-05 -0.00952 1.67e-06 -0.0254 -1.11e-05
-8.4e-06 -2.7e-05 -0.001814 1.293e-05 -1.22e-05 4.95e-06 -0.01211 -0.001054
1.96e-05 -0.00829 2.93e-05 1.49e-05 -1.31e-05 3.74e-05 -0.02379 -0.001692
-0.01367 -0.0257 -0.00179 -0.01304 2.09e-05 1.353e-05 -0.002625 -1.514e-05
-0.02475 -0.0257 -1.32e-05 0.0007663 0.0003488 7.4e-06 2.027e-05 8.8e-06
0.0004063 6.83e-05 -0.0002513 1.21e-05 5.84e-06 1.61e-05 -0.000952 -2.15e-06
-1.824e-05 -7.8e-06 0.000584 -0.012596 0.0002211 -0.000771 -0.002134 2.9e-06
1.18e-05 -0.02502 -0.00108 0.0001535 0.0001077 7.7e-06 -1.9e-05 -0.0007434
00000000: 4e05 4388 388c c115 a21d 3a08 4e05 c902
00000010: 2ca6 661d ad14 7d03 9796 711d 4f88 fb80
00000020: 471b 6300 6a1d da15 871d 2f00 5b98 3004
00000030: 0007 2ea6 0c06 fa81 f810 7081 60a5 17a4
00000040: 9580 bb04 5198 f214 751d 0596 4d09 5404
00000050: 5287 9214 9c1d ae00 e188 8f8a f183 b007
00000060: 341d 2285 5902 651d c885 b101 eda5 4484
00000070: 0803 bf16 37a6 49a6 7b03 4396 00a6 e818
00000080: 0e97 0808 00a6 6e01 17a5 8d02 891d 6885
00000090: 1083 3a88 ab14 6e83 0086 4f83 d9a5 9913
000000a0: 9a80 1b1a 0308 d683 3203 2780 811d 5314
000000b0: 37a6 421d ec14 1ea6 2806 9706 7f16 b087
000000c0: 8a1d 8e1d 1d87 db97 eb99 a888 c182 6808
000000d0: 5594 c28c d10c 4688 af82 9608 da13 9e84
000000e0: 4903 e584 6298 f5a5 0d8e 2710 4d15 ea01
000000f0: 8e03 be1d cb11 1f9a c78a ec83 b085 1c12
00000100: 1800 b080 1206 b298 b9a6 3102 1780 d300
00000110: 9aa2 42a6 8596 1800 c810 79a6 d980 a901
00000120: 07a2 5282 88a6 2497 5ca6 4383 7c12 d380
00000130: c101 eea2 4e01 f400 7c91 7780 3da1 7a9e
00000140: a401 6b02 d30e cf96 a3a6 2f0f fc02 2680
00000150: 3381 2499 8ba6 1681 1281 d209 bd00 ef80
00000160: a3a4 a580 bd80 8ba6 1200 a181 66a2 0280
00000170: 8d00 0b99 0aa3 f1a2 8980 bc10 6fa2 cd9d
00000180: ee11 b200 8da2 b700 e0a0 1c00 81a6 ba80
00000190: 8d80 c581 6e97 d900 cd80 5300 33a2 5194
000001a0: 4901 3fa0 ec01 fa00 dc80 7302 17a6 ee96
000001b0: 00a3 94a6 5597 ada2 5f01 e300 6099 fe80
000001c0: 56a6 94a6 dd80 4712 b70d 7c00 5401 9400
000001d0: a80e 7a04 1e8c cb00 6200 0e01 cc93 2480
000001e0: 3281 8380 c910 73a2 3f0b 5192 5f98 3100
000001f0: c600 68a6 6c94 0809 0f07 8100 3f81 1792

model/dense_3/BiasAdd/Cast:0 f2 [128]
-0.00010425 0.000404 0.001414 -0.0003316 -0.10333 -0.000384 -0.0003796 -0.0002367
-0.1915 -0.08997 0.0002935 -0.000212 0.0001901 -0.0956 0.0006776 0.0001359
-0.001748 -0.000218 -0.10016 -0.0004027 -0.0987 -0.0002183 0.0006843 -0.0002326
-7.74e-05 -0.2135 -0.0002321 0.0001149 -0.000413 0.000275 -0.1483 -0.10126
0.0001845 -0.0002371 -6.473e-05 -0.001285 -0.1019 0.0008407 -0.0002759 -0.0003598
0.0003445 -0.001212 -0.09973 -0.0002694 0.000306 -8.804e-05 0.0001805 -0.0003772
-0.007774 0.00043 -0.0002906 -0.0955 0.0002959 -6.795e-05 -0.1857 0.0002558
-0.0003715 0.00123 -0.2065 -0.2064 -0.0002453 0.000777 -0.1785 -0.00302
0.0001355 -0.0004146 -0.177 3.767e-05 -0.1068 -0.0001463 -0.1011 0.0001366
0.0002499 0.0002108 -0.000741 0.0002084 -4.92e-05 0.0002288 -0.187 -0.001536
0.0002606 -0.002626 -0.0003502 5.597e-05 -0.000282 -4.39e-05 -0.09595 -0.001105
-0.1942 -0.09784 -0.00132 -0.1776 -0.0002267 -0.0004706 0.0006337 0.0004735
-0.0954 -0.1001 0.0003414 0.0003 0.0004158 0.0002766 0.0001429 -0.0007124
0.0008745 0.0002154 -0.000732 0.0002397 4.83e-05 0.0003638 -0.001335 0.0001326
-0.0001953 -2.486e-05 -6.545e-05 -0.1871 0.0008006 -0.001068 -0.0004091 -0.0001812
1.08e-05 -0.09534 -0.001392 0.000756 0.0011215 0.0001768 0.0002295 -0.000553
00000000: d586 9e0e cb15 6f8d 9dae 4b8e 388e c28b
00000010: 21b2 c2ad cf0c f28a 3b0a 1eae 8d11 7408
00000020: 2997 258b 69ae 998e 51ae 278b 9b11 9f8b
00000030: 1385 d5b2 9b8b 8807 c48e 810c bfb0 7bae
00000040: 0c0a c58b 3e84 4395 86ae e312 858c e58d
00000050: a50d f794 62ae 6a8c 030d c585 ea09 2e8e
00000060: f69f 0c0f c38c 1dae d90c 7484 f1b1 310c
00000070: 168e 0a15 9cb2 9bb2 058c 5d12 b6b1 2f9a
00000080: 7108 cb8e aab1 7802 d6ae cb88 78ae 7a08
00000090: 180c e80a 1292 d40a 3983 7f0b fcb1 4b96
000000a0: 450c 6199 bd8d ab03 9f8c e182 24ae 8794
000000b0: 37b2 43ae 6895 afb1 6e8b b68f 3111 c20f
000000c0: 1bae 68ae 980d ea0c d00e 880c af08 d691
000000d0: 2a13 0f0b ff91 db0b 2a03 f60d 7895 5808
000000e0: 668a a181 4a84 fdb1 8f12 6094 b48e f089
000000f0: b500 1aae b495 3112 9814 cb09 850b 8890

model/dense_2/MatMul/Cast:0 f2 [6, 64]
-0.04376 -0.4058 -0.02084 -0.00929 0.01207 0.3748 -9.51e-05 0.184
0.01357 0.03009 -0.03244 -0.00645 -0.03284 0.04202 0.3281 0.0392
0.01372 -0.531 0.4985 0.0832 0.06033 -0.01507 -0.01443 -0.0247
-0.01474 -0.0122 -0.4448 -0.5786 -0.01567 -0.03195 0.01027 0.03108
-0.4292 -0.2708 0.3765 0.0927 0.41 0.002363 0.0398 0.4658
0.381 -0.07916 -0.02397 0.1583 -0.0358 -0.4954 0.00507 0.008255
-0.748 0.1907 -0.734 -0.3489 -0.01997 -0.0206 -0.02283 0.04645
-0.00658 -0.4675 0.01825 0.004673 -0.3296 0.1181 0.005173 -0.01715
-0.1931 0.02348 0.02666 -0.02843 0.00839 -0.09467 -0.11755 0.393
0.002869 -0.03067 0.01098 -0.0646 0.0689 -0.228 -0.167 -0.0527
-0.005085 0.1108 -0.00899 -0.401 -0.0323 0.002506 -0.0782 0.0513
-0.1271 0.36 0.2028 0.161 -0.1746 0.0374 -0.1738 -0.0817
0.012634 0.322 0.04712 -0.2131 -0.2367 -0.003141 0.003754 -0.157
-0.1556 0.05942 0.02747 0.3264 0.0606 0.2361 -0.004436 0.0003176
0.1893 -0.009834 -0.2329 0.2046 -0.003813 0.0879 -0.1705 -0.0738
0.0652 0.3347 0.00423 -0.1069 0.436 0.179 -0.04404 0.01501
0.1764 0.1211 -0.0658 0.03043 -0.00495 -0.0903 0.1381 -0.01048
0.01651 0.0654 -0.05045 0.08167 -0.1261 -0.1083 0.01636 0.05945
0.01223 0.09607 -0.2126 -0.0906 -0.4062 -0.01859 0.1006 -0.0993
0.1516 0.1971 -0.01602 0.02701 0.1951 -0.08026 0.1534 -0.01337
0.1725 0.2391 -0.212 -0.3196 0.09155 0.005817 0.01087 -0.1216
-0.1569 -0.11554 -0.00634 0.1858 -0.1102 6.16e-05 0.001908 0.00849
0.0987 0.03937 -0.0679 -0.03003 -0.01337 -0.1348 0.07715 0.06
-0.1159 0.1775 0.006184 0.1311 0.291 0.1996 -0.0152 -0.001153
0.1696 0.004757 -0.04135 0.0764 -0.006916 0.1428 0.00836 0.443
-0.00754 -0.02753 -0.006527 0.08673 0.01378 0.0004623 0.1656 -0.01756
0.001133 -0.224 0.05408 -0.137 -0.1691 0.09576 0.1077 -0.02731
0.0521 0.3298 0.1497 0.1783 0.0674 0.02045 -0.1171 -0.269
-0.2242 -2.635e-05 0.1708 -0.1705 0.04718 -0.012215 -0.1166 0.1371
0.05618 0.06354 0.01756 0.2593 0.0752 -0.11035 -0.007668 0.03152
0.1556 0.0795 -0.0926 -0.0326 0.03516 -0.014336 0.0967 -0.14
-0.0954 0.2542 -0.01793 0.0328 0.23 0.4363 -0.1148 5.75e-05
00000000: 9aa9 7eb6 56a5 c2a0 2e22 ff35 3c86 e331
00000010: f322 b427 27a8 9b9e 34a8 6129 4035 0529
00000020: 0623 3fb8 fa37 532d b92b b7a3 63a3 53a6
00000030: 8ca3 3fa2 1eb7 a1b8 03a4 17a8 4221 f527
00000040: deb6 55b4 0636 ef2d 8f36 d718 1829 7437
00000050: 1936 11ad 23a6 1131 95a8 edb7 311d 3a20
00000060: fcb9 1a32 dfb9 95b5 1da5 46a5 d8a5 f229
00000070: bd9e 7bb7 ac24 c91c 46b5 8f2f 4c1d 64a4
00000080: 2eb2 0326 d326 47a7 4c20 0fae 86af 4a36
00000090: e019 daa7 9f21 22ac 692c 4cb3 58b1 bfaa
000000a0: 359d 172f 9aa0 6ab6 22a8 2219 01ad 912a
000000b0: 11b0 c335 7d32 2731 96b1 ca28 90b1 3bad
000000c0: 7822 2735 082a d2b2 93b3 6f9a b01b 06b1
000000d0: fbb0 9b2b 0827 3935 c22b 8e33 8b9c 340d
000000e0: 0f32 09a1 74b3 8c32 cf9b a02d 75b1 b9ac
000000f0: 2c2c 5b35 551c d7ae fa36 ba31 a3a9 af23
00000100: a531 c02f 36ac ca27 129d c7ad 6b30 5ea1
00000110: 3a24 302c 75aa 3a2d 09b0 eeae 3024 9c2b
00000120: 4322 262e ceb2 ccad 80b6 c2a4 702e 5bae
00000130: da30 4f32 1aa4 ea26 3e32 23ad e930 d8a2
00000140: 8531 a733 c9b2 1db5 dc2d f51d 9121 c8af
00000150: 05b1 65af 7e9e f231 0eaf 0904 d117 5920
00000160: 512e 0a29 58ac b0a7 d8a2 50b0 f02c ae2b
00000170: 6baf ae31 551e 3230 a834 6332 c8a3 b994
00000180: 6d31 df1c 4ba9 e42c 159f 9230 4820 1737
00000190: b99f 0ca7 af9e 8d2d 0e23 930f 4d31 7fa4
000001a0: a414 2bb3 ec2a 62b0 69b1 212e e52e fea6
000001b0: ab2a 4735 ca30 b531 502c 3c25 7faf 4eb4
000001c0: 2db3 ba81 7731 75b1 0a2a 41a2 76af 6330
000001d0: 312b 112c 7f24 2634 d02c 10af da9f 0928
000001e0: fb30 172d edad 2ca8 8028 57a3 302e 7bb0
000001f0: 1bae 1134 97a4 3328 5c33 fb36 59af c503

model/dense_2/BiasAdd/Cast:0 f2 [64]
-0.8223 0.0808 -0.877 -0.9067 -0.8164 -0.1396 -0.7803 -0.591
-0.984 -0.8994 -0.9434 -0.865 -0.838 -0.34 -0.398 -1.055
-0.7563 0.01422 -0.1105 0.1741 -0.04654 -0.99 -0.724 -0.869
-0.604 -0.4363 -0.1047 -0.287 -0.7188 -0.83 -0.5625 0.6465
-0.1162 -0.4358 -0.4282 0.1377 -0.1011 -0.847 -0.779 -0.0627
-0.336 -1.041 -1.059 -0.5737 -0.868 0.06165 -0.9775 -0.98
-0.6646 -0.8984 -1.001 -0.1433 -0.8823 -0.751 -0.67 -1.002
-0.883 -0.662 -0.9116 -0.7954 -0.5283 -0.387 -0.661 -0.935
00000000: 94ba 2c2d 04bb 41bb 88ba 78b0 3eba bab8
00000010: dfbb 32bb 8cbb ecba b4ba 71b5 5eb6 38bc
00000020: 0dba 4823 12af 9231 f5a9 ecbb cbb9 f4ba
00000030: d5b8 fbb6 b3ae 98b4 c0b9 a4ba 80b8 2c39
00000040: 70af f9b6 dab6 6830 78ae c7ba 3bba 03ac
00000050: 60b5 2abc 3cbc 97b8 f2ba e42b d2bb d7bb
00000060: 51b9 30bb 01bc 96b0 0fbb 02ba 5cb9 02bc
00000070: 10bb 4cb9 4bbb 5dba 3ab8 31b6 4ab9 7bbb

model/dense_1/MatMul/Cast:0 f2 [8, 64]
0.2255 -0.4978 0.286 0.3948 0.11005 0.4268 0.4229 -0.1096
-0.506 0.02695 -0.5186 0.2837 0.1384 0.2842 0.1262 0.07324
0.0903 -0.2512 -0.05292 0.1973 0.2869 -0.1781 -0.2076 -0.4531
-0.2725 0.05002 -0.1711 0.4092 0.112 0.2788 0.4136 -0.466
0.1747 0.2101 0.4888 -0.4583 -0.5605 0.3418 0.2178 -0.9062
-0.1896 0.279 0.1897 -0.02603 -0.2742 0.1332 -0.412 0.253
-0.2344 0.07275 0.1175 0.521 -0.1989 -0.02672 0.2876 -0.1142
0.05365 0.393 -0.1484 -0.4402 -0.014694 0.2886 0.573 -0.4583
-0.3848 -0.02907 -0.2037 0.366 -0.1732 -0.11475 0.006622 0.07324
0.05615 0.525 -0.829 0.8203 -0.3225 -0.04776 0.2593 -0.3286
-0.2898 -0.3745 -0.2416 0.4236 0.1665 -0.0432 -0.4126 -0.533
0.4246 -0.3208 0.392 -0.001139 0.07294 -0.3052 -0.3594 0.3823
-0.1663 -0.3752 -0.1511 -0.3008 -0.596 0.07056 -0.2532 -0.01968
-0.001462 0.03616 0.06537 0.1394 0.2827 -0.2969 0.1615 0.0798
0.2135 -0.2244 -0.2277 0.07104 -0.4546 0.3008 -0.04846 -0.4158
-0.00906 -0.01694 -0.739 -0.2275 -0.10925 0.1417 -0.5303 0.1038
0.2474 0.2183 0.5986 0.01828 -0.04108 -0.0857 0.09784 -0.2435
-0.3445 0.03934 0.2783 0.4568 0.0993 0.743 -0.10895 0.362
0.303 -0.4412 0.003143 -0.1631 0.3538 0.1733 -0.506 -0.859
0.0511 -0.003128 -0.0662 -0.0797 -0.06854 -0.02353 0.2585 -0.284
0.1443 -0.1002 1.231 -0.688 -0.3337 0.102 0.383 -0.3425
-0.5713 0.4448 0.4294 0.0673 -0.153 -0.0822 -0.2554 0.3904
0.3943 -0.001367 0.0749 0.5073 -0.047 0.2242 0.4407 -0.03714
0.1587 0.2394 -0.1592 0.1164 0.491 0.459 0.787 -0.848
-0.0797 -0.7256 -0.376 0.2069 -0.2568 0.4648 0.2198 0.05847
0.2642 -0.3257 -0.376 0.2413 0.148 -0.1226 0.3555 0.082
0.3992 0.241 0.0942 0.0644 0.2712 0.1257 0.2429 -0.796
0.03943 0.401 -0.02869 -0.05566 0.32 0.2319 -0.0383 0.1794
0.537 0.533 0.5625 -0.1039 -0.1796 0.4236 0.0716 -0.4768
0.01941 -0.07764 -0.3904 0.3826 0.09204 0.004868 0.08966 0.8247
-0.542 2.927e-05 0.1508 -0.1722 -0.0909 0.1788 -0.09314 0.374
0.0892 0.02794 0.08325 0.2917 -0.04895 0.0424 0.5493 0.2634
00000000: 3733 f7b7 9334 5136 0b2f d436 c436 04af
00000010: 0cb8 e626 26b8 8a34 6e30 8c34 0a30 b02c
00000020: c72d 05b4 c6aa 5032 9734 b3b1 a5b2 40b7
00000030: 5cb4 672a 7ab1 8c36 2b2f 7634 9e36 75b7
00000040: 9731 b932 d237 55b7 7cb8 7835 f832 40bb
00000050: 11b2 7734 1232 aaa6 63b4 4330 98b6 0c34
00000060: 80b3 a82c 852f 2b38 5db2 d7a6 9a34 4faf
00000070: de2a 4a36 c0b0 0bb7 86a3 9e34 9638 55b7
00000080: 28b6 71a7 85b2 db35 8bb1 58af c81e b02c
00000090: 302b 3338 a2ba 903a 29b5 1daa 2634 42b5
000000a0: a3b4 feb5 bbb3 c736 5431 88a9 9ab6 44b8
000000b0: cb36 22b5 4636 aa94 ab2c e2b4 c0b5 1e36
000000c0: 52b1 01b6 d6b0 d0b4 c5b8 842c 0db4 0aa5
000000d0: fd95 a128 2f2c 7630 8634 c0b4 2b31 1b2d
000000e0: d532 2eb3 49b3 8c2c 46b7 d034 34aa a7b6
000000f0: a4a0 56a4 e9b9 48b3 feae 8930 3eb8 a52e
00000100: eb33 fc32 ca38 ae24 42a9 7cad 432e cbb3
00000110: 83b5 0929 7434 4f37 5b2e f239 f9ae cb35
00000120: d934 0fb7 701a 38b1 a935 8c31 0cb8 dfba
00000130: 8a2a 689a 3dac 1aad 63ac 06a6 2334 8bb4
00000140: 9e30 6aae ed3c 81b9 57b5 872e 2136 7bb5
00000150: 92b8 1e37 df36 4f2c e5b0 43ad 16b4 3f36
00000160: 4f36 9995 cb2c 0f38 04aa 2d33 0d37 c1a8
00000170: 1431 a933 18b1 732f db37 5837 4c3a c9ba
00000180: 1aad ceb9 04b6 9f32 1cb4 7037 0933 7c2b
00000190: 3a34 36b5 04b6 b933 bc30 d9af b035 3f2d
000001a0: 6336 b633 072e 1f2c 5734 0630 c633 5eba
000001b0: 0c29 6a36 58a7 20ab 1f35 6c33 e7a8 be31
000001c0: 4c38 4438 8038 a6ae bfb1 c736 952c a1b7
000001d0: f824 f8ac 3fb6 1f36 e42d fc1c bd2d 993a
000001e0: 56b8 eb01 d330 83b1 d1ad b931 f6ad fc35
000001f0: b52d 2727 542d ab34 44aa 6d29 6538 3734

model/dense_1/BiasAdd/Cast:0 f2 [64]
-0.474 -0.3428 -0.1487 -0.1733 -0.1359 -0.551 -0.3877 -0.05716
-0.1009 -0.1625 -0.2299 -0.2612 -0.621 -0.385 -0.1475 -0.648
-0.2659 -0.1973 0.00965 -0.247 -0.4512 -0.11646 0.01704 -0.3738
-0.2021 -0.1276 -0.09595 -0.03577 -0.2476 0.0495 -0.07654 -0.09534
-0.1207 -0.811 -0.3599 -0.05612 -0.4329 -0.2886 -0.2034 -0.2744
-0.0558 -0.3174 -0.3152 -0.11554 -0.11444 -0.01646 -0.312 -0.7056
-0.1514 -0.02994 -0.1918 -0.7456 -0.265 -0.3296 -0.2512 -0.1466
0.0108 -0.4126 -0.6665 -0.2493 -0.625 -0.2673 -0.6777 -0.3098
00000000: 96b7 7cb5 c2b0 8cb1 59b0 68b8 34b6 51ab
00000010: 75ae 33b1 5bb3 2eb4 f8b8 29b6 b8b0 2fb9
00000020: 41b4 50b2 f120 e7b3 38b7 74af 5d24 fbb5
00000030: 78b2 15b0 24ae 94a8 ecb3 562a e6ac 1aae
00000040: baaf 7dba c2b5 2fab edb6 9eb4 82b2 64b4
00000050: 24ab 14b5 0bb5 65af 53af 37a4 feb4 a5b9
00000060: d8b0 aaa7 23b2 f7b9 3db4 46b5 05b4 b1b0
00000070: 8821 9ab6 55b9 fab3 00b9 47b4 6cb9 f5b4

model/dense/MatMul/Cast:0 f2 [64, 8]
-0.489 -0.0771 0.1422 -0.4224 -0.06915 0.02231 -0.0655 -0.1788
0.2625 0.3413 -0.2485 0.586 0.2769 0.671 -0.1118 0.9
-0.3442 0.2683 -0.759 -0.3633 0.3174 -0.3357 -0.586 -1.029
-0.2279 -0.5054 -0.539 -0.472 -0.1896 -0.2328 -0.3655 -0.522
-0.0682 -0.3044 -0.7666 0.435 -0.5166 0.3376 -0.4517 0.6973
-0.02092 -0.4597 -0.04523 -0.04926 -0.0494 0.07916 0.1032 -0.06006
0.2174 -0.517 -0.564 -0.1747 -0.4463 -0.2389 -0.3708 0.1015
0.0195 -0.0633 0.01375 -0.3137 0.3691 -0.2115 0.309 0.3757
0.115 0.05206 -0.231 -0.2568 0.3186 -0.316 -0.1277 0.1848
0.1499 -0.09436 0.38 -0.1803 -0.1959 0.3376 -0.1559 0.476
-0.0612 0.1857 -0.4583 -0.4507 0.2161 -0.2969 -0.1598 -0.4421
-0.1128 -0.624 -0.2844 -0.2544 0.525 -0.09827 0.0514 -0.6387
0.01593 0.04745 -0.71 0.465 -0.2028 -0.1981 -0.35 -0.02446
-0.3591 -0.2864 -0.05292 -0.857 0.3772 -0.5767 0.0391 -0.8257
0.2114 0.1952 0.1029 0.3196 -0.2125 -0.3464 -0.2834 0.8564
-0.1583 -0.4736 -0.1548 -0.786 0.2213 -0.504 -0.3748 -0.9653
0.02687 -0.1456 0.1192 -0.2527 0.4958 -0.0768 -0.1904 0.0704
-0.575 0.3357 -0.354 0.1702 0.2201 -0.1802 -0.67 0.2664
-0.109 -0.04877 0.2377 0.01888 0.5894 -0.1807 0.0731 0.5283
-0.3801 -0.196 -0.7515 -0.6616 -0.05194 -0.10187 0.07465 -0.652
-0.724 -0.1083 -0.8223 -0.7427 0.7773 -0.946 -0.329 -0.3784
-0.0431 -0.4224 -0.07086 0.3037 0.1484 -0.2678 0.10956 -0.1451
0.07605 -0.2468 -0.12006 -0.1586 0.2267 0.3455 -0.15 0.0956
-0.6123 -0.2092 -0.0646 -0.4038 -0.1279 -0.4636 -0.2313 -0.627
-0.2255 -0.6895 -0.1726 -0.669 -0.06433 -0.1548 0.3887 -0.755
-0.0831 -0.10315 0.2487 0.4453 0.1498 0.01613 0.0157 0.4004
-0.3896 0.03772 -0.232 -0.3872 0.4568 -0.4001 -0.04083 -0.256
0.2747 -0.06143 0.05087 0.3538 0.2598 0.1504 -0.03854 0.3696
-0.2734 -0.08105 -0.0702 -0.4255 0.288 -0.3035 -0.3083 -0.925
-0.1355 -0.1823 0.547 -0.4395 0.2191 0.3303 -0.2346 -0.2798
-0.04874 0.2174 0.5137 -0.07764 0.0583 0.4788 -0.192 0.8813
-0.4756 0.3035 0.2505 0.2239 0.4636 -0.607 -0.2666 0.1658
00000000: d3b7 efac 8d30 c2b6 6dac b625 31ac b9b1
00000010: 3334 7635 f4b3 b038 6e34 5e39 28af 333b
00000020: 82b5 4b34 12ba d0b5 1435 5fb5 b0b8 1ebc
00000030: 4bb3 0bb8 50b8 8db7 11b2 73b3 d9b5 2db8
00000040: 5dac dfb4 22ba f636 22b8 6735 3ab7 9439
00000050: 5ba5 5bb7 caa9 4eaa 53aa 112d 9b2e b0ab
00000060: f532 23b8 83b8 97b1 24b7 a5b3 efb5 7f2e
00000070: fe24 0dac 0a23 05b5 e835 c5b2 f234 0336
00000080: 5c2f aa2a 64b3 1cb4 1935 0eb5 16b0 ea31
00000090: cc30 0aae 1436 c5b1 45b2 6735 fdb0 9e37
000000a0: d5ab f131 55b7 36b7 ea32 c0b4 1db1 13b7
000000b0: 38af feb8 8db4 12b4 3338 4aae 942a 1cb9
000000c0: 1424 132a aeb9 7137 7db2 57b2 9ab5 43a6
000000d0: bfb5 95b4 c6aa dbba 0936 9db8 0129 9bba
000000e0: c432 3f32 962e 1d35 cdb2 8bb5 89b4 da3a
000000f0: 11b1 94b7 f4b0 4aba 1533 08b8 ffb5 b9bb
00000100: e126 a9b0 a12f 0bb4 ef37 eaac 18b2 812c
00000110: 9ab8 5f35 aab5 7231 0b33 c4b1 5cb9 4334
00000120: faae 3eaa 9b33 d524 b738 c8b1 ae2c 3a38
00000130: 15b6 46b2 03ba 4bb9 a6aa 85ae c72c 37b9
00000140: cbb9 eeae 94ba f1b9 383a 91bb 44b5 0eb6
00000150: 84a9 c2b6 89ac dc34 c030 49b4 032f a5b0
00000160: de2c e6b3 afaf 13b1 4133 8735 cdb0 1e2e
00000170: e6b8 b2b2 22ac 76b6 18b0 6bb7 67b3 04b9
00000180: 37b3 84b9 86b1 5ab9 1eac f4b0 3836 0aba
00000190: 52ad 9aae f533 2037 cb30 2124 0524 6836
000001a0: 3cb6 d428 6db3 32b6 4f37 67b6 3aa9 19b4
000001b0: 6534 ddab 832a a935 2834 d030 efa8 ea35
000001c0: 60b4 30ad 7eac cfb6 9c34 dbb4 efb4 66bb
000001d0: 56b0 d5b1 6038 08b7 0333 4935 82b3 7ab4
000001e0: 3daa f532 1c38 f8ac 762b a937 25b2 0d3b
000001f0: 9cb7 db34 0234 2a33 6b37 dbb8 44b4 4e31

model/dense/BiasAdd/Cast:0 f2 [8]
0.1588 0.1691 0.11804 0.2676 0.2637 0.02356 -0.04135 0.114
00000000: 1531 6931 8e2f 4834 3834 0826 4ba9 4c2f

model/conv2d_3/Conv2D/Cast:0 f2 [64, 64, 3, 3]
-0.025 -0.1335 -0.10095 0.05484 -0.01581 -0.05453 -0.06805 -0.10376
0.1164 -0.1083 -0.0461 0.1835 0.06104 -0.00854 0.1497 -0.01266
-0.01153 0.005615 -0.0924 -0.1805 0.1581 0.03928 -0.0418 0.0807
0.2003 -0.1289 -0.03918 -0.105 -0.1216 0.1073 -0.06073 -0.00506
-0.1399 -0.1071 0.08746 -0.07526 -0.05115 0.02711 0.09894 0.1357
0.0272 0.0942 0.06366 0.0341 0.0792 -0.10065 -0.09686 0.09607
-0.0333 0.02206 -0.012245 -0.0607 -0.112 0.04413 -0.1857 -0.04984
0.07 0.02261 -0.0523 0.02878 0.1962 -0.0649 -0.0782 0.01707
0.05838 0.06915 -0.0927 0.0349 0.055 -0.0338 0.1091 0.07605
-0.104 0.03162 0.003859 -0.00828 -0.04117 -0.2644 -0.2537 0.11475
-0.1569 0.0001742 0.1364 0.2062 -0.005314 0.02425 -0.0324 0.2075
-0.0962 -0.1206 -0.0871 0.04108 0.1337 0.02463 0.05737 0.11084
-0.12305 0.08545 -0.12225 0.023 0.06384 0.0902 0.05093 -0.02527
0.09863 -0.1394 0.01147 0.0209 -0.02377 0.1031 0.3083 -0.02394
0.1584 0.03314 0.05798 0.1503 0.006886 0.0633 0.07275 -0.02731
-0.187 0.0835 -0.0954 -0.1213 -0.04636 -0.01136 -0.1606 0.0632
0.001186 -0.23 -0.03073 -0.0771 -0.3284 -0.1052 -0.0345 -0.0745
-0.2666 0.1332 -0.00947 0.0578 0.1099 -0.0166 -0.0911 -0.05975
-0.01785 0.06024 0.006737 0.01709 0.0451 -0.0327 -0.09076 0.0341
0.1088 0.002352 -0.02777 0.2291 0.01161 0.02086 0.08813 0.04828
-0.11334 0.1948 -0.04153 0.04953 -0.1685 -0.1768 0.09607 0.1309
0.0264 -0.02997 0.02934 0.004383 0.1483 0.1099 -0.1431 -0.03296
0.0862 0.0662 -0.1681 -0.09814 -0.09033 -0.045 0.01457 -0.0694
0.0699 -0.0882 0.2532 -0.1388 -0.10535 -0.0682 -0.04697 -0.2214
-0.00901 -0.009056 0.1758 -0.003572 0.0795 -0.005623 0.0643 -0.1664
0.1078 -0.0795 -0.04605 0.10815 -0.008766 -0.1511 0.03757 -0.002638
-0.05542 0.0862 -0.04633 -0.03552 0.04642 -0.0705 -0.2625 0.1787
0.0358 0.07635 0.014 -0.011055 0.02469 0.01495 0.1774 -0.1401
-0.04135 -0.1302 -0.03677 -0.1476 0.03717 0.04395 -0.02878 -0.2068
-0.08826 0.1625 -0.1231 0.0398 0.1674 0.00956 0.0695 0.1492
-0.05264 -0.0345 0.005795 -0.0525 -0.1847 -0.1554 0.1552 -0.010315
0.321 0.1102 -0.1035 0.0977 -0.0344 0.0364 -0.0984 -0.0872
00000000: 66a6 46b0 76ae 052b 0ca4 fbaa 5bac a4ae
00000010: 732f eeae e7a9 df31 d02b 5fa0 ca30 7ba2
00000020: e7a1 c01d eaad c7b1 0f31 0729 5aa9 2a2d
00000030: 6932 20b0 04a9 b8ae c8af de2e c6ab 2e9d
00000040: 7ab0 dbae 992d d1ac 8caa f126 552e 5830
00000050: f726 072e 132c 5d28 122d 71ae 33ae 262e
00000060: 43a8 a625 45a2 c5ab 2baf a629 f1b1 61aa
00000070: 7b2c ca25 b2aa 5e27 4732 27ac 01ad 5f24
00000080: 792b 6d2c efad 7828 0a2b 54a8 fb2e de2c
00000090: a8ae 0c28 e71b 3da0 45a9 3bb4 0fb4 582f
000000a0: 05b1 b509 5d30 9932 719d 3526 26a8 a432
000000b0: 28ae b8af 93ad 4229 4730 4e26 582b 182f
000000c0: e0af 782d d3af e325 162c c62d 852a 78a6
000000d0: 502e 76b0 df21 5a25 16a6 992e ef34 21a6
000000e0: 1231 3e28 6c2b cf30 0d1f 0d2c a82c fea6
000000f0: fcb1 582d 1bae c3af efa9 d1a1 24b1 0b2c
00000100: dc14 5cb3 dea7 efac 41b5 bcae 6aa8 c5ac
00000110: 44b4 4330 d9a0 662b 092f 40a4 d5ad a6ab
00000120: 92a4 b62b e61e 6024 c629 30a8 cfad 5d28
00000130: f72e d118 1ca7 5533 f221 5725 a42d 2e2a
00000140: 41af 3c32 51a9 572a 64b1 a8b1 262e 3030
00000150: c226 aca7 8327 7d1c bf30 092f 94b0 38a8
00000160: 842d 3d2c 61b1 48ae c8ad c3a9 7623 71ac
00000170: 792c a5ad 0d34 71b0 beae 5dac 03aa 16b3
00000180: 9da0 a3a0 a031 519b 172d c29d 1d2c 53b1
00000190: e62e 17ad e5a9 ec2e 7da0 d6b0 cf28 6799
000001a0: 18ab 842d eea9 8ca8 f129 83ac 33b4 b831
000001b0: 9528 e32c 2b23 a9a1 5226 a823 ad31 7cb0
000001c0: 4ba9 2bb0 b5a8 b9b0 c228 a029 5ea7 9eb2
000001d0: a6ad 3331 e1af 1829 5b31 e520 732c c630
000001e0: bdaa 6aa8 ef1d b8aa e9b1 f9b0 f730 48a1
000001f0: 2335 0e2f a0ae 412e 67a8 a928 4cae 95ad

model/conv2d_3/BiasAdd/Cast:0 f2 [64]
-0.233 -0.1849 -0.005558 -0.1404 -0.2878 -0.298 0.01581 -0.2935
-0.1389 -0.2642 -0.0954 -0.04263 0.0376 -0.09216 -0.2118 -0.11615
-0.125 -0.045 -0.1353 -0.1708 -0.2284 -0.1581 0.01309 -0.3044
-0.2264 -0.1024 -0.2256 0.0958 -0.1453 -0.04575 -0.1272 -0.03098
0.009155 0.038 0.1451 -0.2559 -0.2515 -0.12024 -0.04364 0.07166
-0.1072 -0.0954 -0.4133 -0.1671 -0.3247 -0.2368 -0.2206 0.03488
-0.2465 -0.1766 -0.2517 -0.1781 -0.3235 -0.1161 -0.405 -0.0915
-0.04108 -0.2334 -0.11847 -0.1823 -0.0344 -0.1912 0.09186 -0.2715
00000000: 75b3 ebb1 b19d 7eb0 9bb4 c5b4 0c24 b2b4
00000010: 72b0 3ab4 1bae 75a9 d028 e6ad c7b2 6faf
00000020: 00b0 c3a9 54b0 77b1 4fb3 0fb1 b422 dfb4
00000030: 3fb3 8eae 38b3 222e a6b0 dba9 12b0 eea7
00000040: b020 dd28 a530 18b4 06b4 b2af 96a9 962c
00000050: dcae 1bae 9db6 59b1 32b5 94b3 0fb3 7728
00000060: e3b3 a7b1 07b4 b3b1 2db5 6eaf 7bb6 dbad
00000070: 42a9 78b3 95af d5b1 67a8 1eb2 e12d 58b4

model/conv2d_2/Conv2D/Cast:0 f2 [64, 32, 3, 3]
0.0587 0.0195 -0.0448 -0.08167 -0.0789 -0.05273 -0.10706 0.01941
0.02147 -0.05392 -0.146 0.013916 -0.03983 0.0487 0.01146 -0.0113
0.04297 0.00749 0.1523 0.1628 0.1558 0.0869 0.03067 -0.147
-0.1355 0.0527 -0.193 -0.106 -0.0031 -0.2072 0.1053 0.0972
-0.1293 -0.09235 0.1007 0.02794 -0.1772 0.1204 0.02818 0.01662
-0.04575 0.12463 -0.04932 0.0852 -0.07806 -0.288 -0.1052 0.02194
0.07367 -0.05246 0.05994 0.03845 -0.04022 -0.0611 0.002525 0.03043
0.2542 -0.014175 -0.1971 0.0967 0.007584 0.0683 -0.08685 -0.00634
-0.004173 0.03183 0.01556 0.06616 -0.2756 0.07715 -0.00011075 -0.255
0.1752 0.1721 0.004642 0.1909 -0.06464 -0.02043 -0.05753 -0.0266
0.0473 -0.03763 0.08417 0.005787 0.1876 0.04248 -0.10486 -0.2247
0.11523 0.06226 0.04477 -0.0807 -0.0482 0.002237 -0.03937 -0.0371
-0.0345 0.05457 -0.05545 -0.003172 -0.02202 0.0884 0.06232 0.1293
-0.0831 -0.0894 -0.004086 -0.0814 0.1779 -0.04556 0.03857 -0.1037
0.0947 -0.10693 -0.1019 -0.03683 0.07336 0.0308 -0.039 0.1862
0.05505 -0.03818 -0.0713 -0.05176 0.02856 -0.1754 0.1614 0.2212
0.0864 0.1011 -0.0632 -0.12115 -0.01549 -0.1327 0.01222 -0.0324
-0.05054 0.04718 -0.08777 -0.081 -0.1661 0.01478 -0.06274 -0.1251
0.1422 0.1288 0.06964 0.109 -0.001736 0.01701 -0.1536 -0.01822
0.0665 -0.12366 -0.04404 -0.1544 -0.1647 -0.001336 -0.04074 0.05954
-0.03442 0.0263 -0.0886 -0.06186 0.002352 0.0899 -0.001295 0.015236
-0.0747 0.06305 0.1112 -0.1375 -0.0378 0.11194 -0.1559 0.05518
-0.1204 -0.06137 -0.04755 -0.2693 0.1023 0.2432 -0.1886 0.04178
-0.00688 0.0636 -0.1613 -0.11066 0.2103 0.02689 -0.04434 0.005264
0.2732 -0.05466 0.09863 -0.09674 -0.1367 -0.1459 -0.014984 0.0676
-0.286 -0.2272 -0.05917 0.0799 0.1211 -0.0827 0.0585 0.00841
-0.01115 0.1035 -0.1794 -0.02765 0.0607 -0.0229 0.01906 -0.0635
-0.1877 -0.1768 -0.0702 0.1115 0.2161 -0.01768 -0.01852 -0.05548
0.0499 -0.1721 -0.09485 -0.2656 0.09576 0.011444 0.03726 0.04828
0.06744 0.05792 -0.0529 0.01677 0.1111 0.10126 0.05737 -0.03214
-0.0301 -0.03693 0.10565 0.12335 0.0717 0.1174 -0.1533 -0.1051
0.03613 0.0786 -0.2236 0.05685 -0.1902 -0.003038 0.1516 0.011665
00000000: 832b fe24 bca9 3aad 0dad c0aa daae f824
00000010: 7f25 e7aa acb0 2023 19a9 3c2a de21 c9a1
00000020: 8029 ab1f e030 3631 fc30 902d da27 b4b0
00000030: 56b0 bf2a 2db2 c9ae 599a a1b2 bd2e 392e
00000040: 23b0 e9ad 722e 2727 acb1 b52f 3727 4124
00000050: dba9 fa2f 50aa 742d ffac 9cb4 bcae 9e25
00000060: b72c b7aa ac2b ec28 26a9 d2ab 2c19 ca27
00000070: 1134 42a3 4fb2 302e c41f 5f2c 8fad 7e9e
00000080: 469c 1328 f723 3c2c 69b4 f02c 4287 14b4
00000090: 9b31 8231 c11c 1c32 23ac 3ba5 5dab cfa6
000000a0: 0e2a d1a8 632d ed1d 0132 7029 b6ae 31b3
000000b0: 602f f82b bb29 2aad 2baa 9518 0aa9 c0a8
000000c0: 6aa8 fc2a 19ab 7f9a a3a5 a82d fa2b 2330
000000d0: 52ad b9ad 2f9c 36ad b131 d5a9 f028 a3ae
000000e0: 102e d8ae 86ae b7a8 b22c e327 fea8 f531
000000f0: 0c2b e3a8 90ac a0aa 5027 9db1 2a31 1433
00000100: 882d 782e 0bac c1af eea3 3fb0 4222 26a8
00000110: 78aa 0a2a 9ead 2fad 51b1 9123 04ac 01b0
00000120: 8d30 1f30 752c fa2e 1c97 5b24 eab0 aaa4
00000130: 422c eaaf a3a9 f1b0 45b1 7995 37a9 9f2b
00000140: 68a8 bc26 acad ebab d118 c12d 4e95 cd23
00000150: c8ac 092c 1e2f 66b0 d7a8 2a2f fdb0 102b
00000160: b5af dbab 16aa 4fb4 8c2e c833 09b2 5929
00000170: 0c9f 122c 29b1 15af bb32 e226 ada9 641d
00000180: 5f34 ffaa 502e 31ae 60b0 abb0 aca3 542c
00000190: 93b4 45b3 93ab 1d2d c02f 4bad 7d2b 4e20
000001a0: b5a1 a02e beb1 14a7 c52b dda5 e124 10ac
000001b0: 02b2 a8b1 7eac 232f ea32 87a4 bea4 1aab
000001c0: 632a 82b1 12ae 40b4 212e dc21 c528 2e2a
000001d0: 512c 6a2b c5aa 4b24 1c2f 7b2e 582b 1da8
000001e0: b5a7 baa8 c32e e52f 972c 832f e8b0 baae
000001f0: a028 082d 28b3 472b 16b2 399a da30 f921

model/conv2d_2/BiasAdd/Cast:0 f2 [64]
-0.1478 -0.1816 0.03244 0.01805 -0.336 -0.06186 0.0935 -0.2362
-0.1279 -0.11 -0.09753 -0.11786 -0.01877 -0.2333 0.04184 -0.1741
-0.0784 -0.2268 -0.2988 -0.0554 0.08704 -0.1743 0.012405 -0.2019
-0.139 -0.09674 -0.0791 -0.03757 -0.1947 -0.01095 0.006294 -0.03165
-0.2284 -0.1836 -0.1613 0.06287 -0.189 -0.2423 -0.0403 -0.2524
-0.06238 -0.2725 0.1587 -0.1395 -0.1532 -0.2993 -0.03702 -0.0936
-0.1906 -0.1594 -0.1865 -0.29 -0.2644 0.00914 -0.1266 -0.1271
0.01666 -0.268 -0.338 -0.1747 -0.01058 -0.207 -0.023 -0.1434
00000000: bbb0 d0b1 2728 9f24 60b5 ebab fc2d 8fb3
00000010: 18b0 0aaf 3eae 8baf cea4 77b3 5b29 92b1
00000020: 05ad 42b3 c8b4 17ab 922d 94b1 5a22 76b2
00000030: 73b0 31ae 10ad cfa8 3bb2 9ba1 721e 0da8
00000040: 4fb3 e0b1 29b1 062c 0cb2 c1b3 29a9 0ab4
00000050: fcab 5cb4 1431 77b0 e7b0 cab4 bda8 fead
00000060: 19b2 1ab1 f8b1 a4b4 3bb4 ae20 0db0 11b0
00000070: 4424 4ab4 68b5 97b1 6ba1 a0b2 e3a5 97b0

model/conv2d_1/Conv2D/Cast:0 f2 [64, 32, 1, 1]
-0.063 0.1692 -0.01317 0.105 0.11694 -0.11346 0.2113 -0.1348
-0.0312 0.08417 0.07556 -0.0815 0.07025 0.2898 -0.0951 -0.06024
-0.07275 0.2123 -0.1471 0.0887 -0.05737 0.0918 0.043 0.0229
-0.0851 -0.06116 0.05563 -0.07776 0.187 0.1941 -0.173 0.13
-0.1552 -0.04706 -0.1993 0.105 0.0337 0.10266 -0.1251 -0.3003
0.036 -0.00844 0.02559 -0.0839 -0.02394 -0.0669 0.02286 -0.2097
-0.05292 -0.1726 0.0334 -0.2476 0.2301 -0.03467 -0.1054 0.1636
-0.145 -0.07794 -0.4204 0.10944 0.06757 -0.2357 0.08344 0.08527
0.1505 0.0946 0.08765 -0.0819 0.1433 -0.1313 -0.1383 -0.2042
0.064 -0.2062 -0.1981 -0.1361 -0.0845 0.1403 -0.05447 0.04065
0.2603 -0.0889 0.1102 0.03473 0.0712 -0.10376 0.087 -0.04388
-0.1674 -0.2123 0.012215 -0.02649 -0.1165 0.095 -0.05234 0.08325
0.15 -0.159 0.0391 -0.2125 -0.1231 -0.2145 -0.138 0.12366
0.0078 0.02626 -0.2219 -0.0321 -0.01125 -0.000994 0.2368 0.1577
-0.1504 -0.002056 -0.00653 -0.01482 0.0797 -0.09235 0.06647 0.1726
-0.0689 0.01273 0.01335 0.03238 0.0498 0.05997 0.1602 0.09485
0.03723 -0.02095 0.0005403 0.02426 0.02231 -0.2039 0.2554 0.1085
0.15 -0.1827 -0.0671 -0.0002354 -0.0803 -0.2229 0.156 -0.10864
0.0294 -0.0511 -0.166 -0.1641 -0.000412 -0.1343 -0.171 0.05338
-0.1901 0.0209 -0.08575 0.0481 -0.0558 -0.1671 0.1225 -0.07056
0.02899 -0.0684 -0.212 -0.005783 -0.207 0.19 0.02655 0.0559
0.07825 0.0982 -0.1049 0.11554 0.0708 0.1466 -0.02893 0.1604
0.05542 -0.02066 -0.1571 -0.1376 0.1516 -0.02866 0.002216 0.1296
0.06006 0.00383 -0.06073 -0.01007 -0.08453 0.04367 0.1273 0.0993
-0.02031 0.02617 0.1107 -0.06192 0.209 0.104 0.1886 0.0409
-0.1836 -0.1667 -0.0709 -0.01118 0.01126 -0.06885 0.0213 0.08215
0.2695 -0.09235 0.004612 0.05545 0.1159 0.097 -0.02388 -0.1365
-0.12036 0.1628 0.06586 0.02486 0.0922 -0.01193 0.0727 0.1417
-0.1499 0.1375 -0.1164 0.003344 0.2146 -0.03558 0.1399 0.01467
0.05737 0.063 0.008064 -0.2489 -0.0772 -0.12164 0.091 -0.1615
0.009224 0.278 0.02583 -0.02168 0.183 0.083 -0.1672 -0.06616
-0.09717 -0.04956 0.1322 -0.05975 0.03345 0.0826 0.02786 0.1118
00000000: 08ac 6a31 bea2 b82e 7c2f 43af c332 50b0
00000010: fda7 632d d62c 37ad 7f2c a334 16ae b6ab
00000020: a8ac cb32 b5b0 ad2d 58ab e02d 8129 dd25
00000030: 72ad d4ab 1f2b faac fc31 3632 89b1 2930
00000040: f7b0 06aa 61b2 b82e 5028 922e 01b0 ceb4
00000050: 9c28 52a0 8d26 5fad 21a6 48ac da25 b6b2
00000060: c6aa 86b1 4628 ecb3 5d33 70a8 bfae 3c31
00000070: a4b0 fdac bab6 012f 532c 8bb3 572d 752d
00000080: d130 0e2e 9c2d 3ead 9630 34b0 6db0 89b2
00000090: 192c 99b2 57b2 5bb0 68ad 7d30 f9aa 3429
000000a0: 2a34 b1ad 0e2f 7228 8f2c a4ae 912d 9ea9
000000b0: 5bb1 cbb2 4122 c8a6 75af 142e b3aa 542d
000000c0: cd30 17b1 0129 cdb2 e1af ddb2 6ab0 ea2f
000000d0: fd1f b926 1ab3 1ca8 c3a1 1294 9433 0c31
000000e0: d0b0 3698 b09e 96a3 1a2d e9ad 412c 8631
000000f0: 69ac 8522 d622 2528 602a ad2b 2031 122e
00000100: c428 5da5 6d10 3626 b625 86b2 1634 f22e
00000110: cd30 d9b1 4bac b78b 24ad 22b3 fe30 f4ae
00000120: 8727 8aaa 50b1 40b1 c08e 4cb0 79b1 d52a
00000130: 15b2 5a25 7dad 282a 24ab 59b1 d72f 84ac
00000140: 6c27 61ac c9b2 ec9d a0b2 1432 cc26 282b
00000150: 022d 492e b7ae 652f 882c b130 68a7 2231
00000160: 182b 4aa5 07b1 67b0 da30 56a7 8a18 2630
00000170: b02b d81b c6ab 28a1 69ad 9729 1330 5b2e
00000180: 33a5 b326 162f edab b032 a82e 0932 3c29
00000190: e0b1 56b1 8aac b9a1 c421 68ac 7425 422d
000001a0: 5034 e9ad b91c 192b 6b2f 352e 1da6 5eb0
000001b0: b4af 3631 372c 5d26 e72d 1ca2 a72c 8930
000001c0: ccb0 6630 73af d91a de32 8ea8 7a30 8323
000001d0: 582b 082c 2120 f7b3 f1ac c9af d32d 2bb1
000001e0: b920 7334 9d26 8da5 db31 502d 5ab1 3cac
000001f0: 38ae 58aa 3b30 a6ab 4828 492d 2227 282f

model/conv2d_1/BiasAdd/Cast:0 f2 [64]
-0.063 -0.04852 0.05975 -0.08734 0.004955 -0.02403 -0.0766 -0.013016
-0.02481 -0.02649 -0.198 0.02821 0.1404 -0.004765 0.04327 -0.0334
0.0369 0.1268 0.06177 -0.01903 0.04343 0.1375 0.00269 -0.1991
-0.03204 0.1627 -0.0928 0.26 -0.005615 -0.0689 -0.02914 -0.006596
-0.0756 0.1539 0.1593 -0.004284 -0.12354 -0.00874 0.192 0.02112
-0.002148 -0.007362 -0.0499 0.04465 0.06793 0.02765 0.04138 0.034
-0.07385 0.014915 -0.01884 0.03445 0.10443 -0.0031 -0.01672 -0.003643
0.09875 0.045 0.02042 -0.02567 -0.02155 -0.01813 0.05344 0.02765
00000000: 08ac 36aa a62b 97ad 131d 27a6 e7ac aaa2
00000010: 5aa6 c8a6 56b2 3927 7e30 e19c 8a29 46a8
00000020: b928 0f30 e82b dfa4 8f29 6630 8219 5fb2
00000030: 1aa8 3531 f0ad 2934 c09d 69ac 76a7 c19e
00000040: d7ac ed30 1931 639c e8af 7aa0 2532 6825
00000050: 6698 8a9f 63aa b729 592c 1427 4c29 5a28
00000060: baac a323 d3a4 6928 af2e 599a 48a4 769b
00000070: 522e c329 3a25 92a6 84a5 a4a4 d72a 1427

model/conv2d/Conv2D/Cast:0 f2 [32, 12, 3, 3]
0.0911 0.1405 -0.04654 -0.2257 -0.01619 0.0369 0.03976 0.01929
-0.2227 0.085 0.0974 -0.1477 -0.01508 0.00442 0.04663 0.10785
0.003727 -0.1986 -0.007504 0.07874 0.008965 0.1129 -0.1508 0.0889
-0.02112 0.11395 -0.1737 0.0249 0.01859 0.0527 -0.02461 0.0473
0.1254 -0.0576 -0.02713 -0.05405 0.1465 0.1065 -0.2268 -0.1247
0.0997 0.06805 0.06824 -0.2473 -0.0838 0.1604 0.1167 -0.35
0.01058 -0.11505 0.2268 -0.00493 -0.0921 -0.03583 -0.04303 0.05707
-0.1346 0.02995 0.10065 -0.01575 0.0928 -0.162 0.03336 0.003607
0.01099 -0.2103 0.1011 0.1603 -0.1322 0.01675 0.153 -0.1091
0.1412 0.01359 -0.3062 -0.02667 0.1381 0.02383 -0.1094 -0.01042
0.0949 0.07385 0.0763 -0.1201 0.0841 -0.01613 -0.0587 -0.1333
-0.1335 0.197 0.0181 0.01904 -0.1262 0.1232 -0.06934 0.05664
-0.03778 -0.0594 0.0825 -0.03394 -0.0722 -0.0966 0.0909 -0.06537
0.0605 -0.133 -0.1192 0.1959 -0.1552 -0.0488 0.003063 0.0004663
0.02931 0.1356 0.1937 0.08 -0.02844 -0.1565 -0.02933 0.06635
-0.1736 0.1893 -0.01451 0.191 0.2191 -0.1337 -0.09033 -0.02962
0.1316 -0.05136 0.10767 -0.02887 0.1033 0.216 0.05197 -0.1356
-0.0838 0.00885 -0.08936 0.0913 0.0511 0.164 0.2761 -0.05365
-0.0084 -0.05847 0.01709 -0.0366 0.1354 0.07465 0.1649 0.0866
-0.02557 -0.142 0.06555 -0.0427 -0.01534 0.1459 -0.05948 0.0753
0.04382 0.08954 -0.11487 0.0553 -0.0314 -0.01949 0.06256 0.0332
0.09094 0.0621 0.1194 -0.1888 0.03964 0.08344 0.09644 -0.03986
0.02661 0.0614 0.05716 0.0425 -0.2026 0.04053 0.04562 0.0488
0.06714 0.0759 0.004543 0.2725 -0.1514 -0.1742 0.0791 0.12494
0.1621 -0.04733 0.01506 0.1434 0.2201 -0.10034 -0.11096 0.11584
0.08344 0.1199 0.02565 -0.0662 0.1266 0.2302 -0.1642 -0.102
0.03598 0.0748 -0.1351 0.10864 0.02402 0.1661 0.1614 -0.0846
0.02496 -0.092 -0.1843 -0.0644 -0.0628 -0.06995 0.1625 -0.00069
0.0628 0.0584 -0.1038 -0.2764 -0.1565 -0.0714 -0.0843 0.08026
0.08887 0.1265 -0.04944 -0.1142 -0.1116 -0.009094 -0.1317 -0.1561
0.1327 0.1656 0.0459 -0.0792 -0.0836 -0.1666 -0.11945 -0.009026
-0.0648 0.0891 0.0601 0.11884 -0.1804 -0.11487 -0.1622 0.000311
00000000: d52d 7f30 f5a9 39b3 25a4 b928 1729 f024
00000010: 20b3 712d 3c2e bab0 b9a3 871c f829 e72e
00000020: a21b 5bb2 af9f 0a2d 9720 3a2f d3b0 b12d
00000030: 68a5 4b2f 8fb1 6026 c224 bf2a 4da6 0e2a
00000040: 0330 5fab f2a6 ebaa b030 d12e 42b3 fbaf
00000050: 612e 5b2c 5e2c eab3 5dad 2231 782f 9ab5
00000060: 6b21 5daf 4233 0c9d e5ad 96a8 82a9 4e2b
00000070: 4fb0 ab27 712e 08a4 f02d 2fb1 4528 631b
00000080: a021 bbb2 782e 2131 3bb0 4a24 e530 fbae
00000090: 8530 f522 e6b4 d4a6 6b30 1a26 00af 56a1
000000a0: 132e ba2c e22c b0af 622d 21a4 83ab 44b0
000000b0: 46b0 4e32 a224 e024 0ab0 e32f 70ac 402b
000000c0: d6a8 9aab 482d 58a8 9fac 2fae d12d 2fac
000000d0: be2b 42b0 a1af 4532 f7b0 3faa 461a a40f
000000e0: 8127 5730 3332 1f2d 48a7 02b1 82a7 3f2c
000000f0: 8eb1 0f32 6ea3 1d32 0333 47b0 c8ad 95a7
00000100: 3630 93aa e42e 64a7 9c2e e932 a72a 57b0
00000110: 5dad 8820 b8ad d82d 8a2a 3f31 6b34 deaa
00000120: 4da0 7cab 6024 afa8 5530 c72c 4731 8b2d
00000130: 8ca6 8bb0 322c 77a9 dba3 ab30 9dab d22c
00000140: 9c29 bb2d 5aaf 142b 05a8 fda4 012c 4028
00000150: d22d f32b a42f 0bb2 1329 572d 2c2e 1aa9
00000160: d026 dc2b 512b 7129 7cb2 3029 d729 3f2a
00000170: 4c2c dc2c a71c 5c34 d8b0 93b1 102d ff2f
00000180: 3031 0faa b623 9730 0b33 6cae 1aaf 6a2f
00000190: 572d ac2f 9126 3dac 0d30 5e33 41b1 87ae
000001a0: 9b28 ca2c 53b0 f42e 2626 5131 2a31 6aad
000001b0: 6426 e3ad e6b1 1fac 05ac 7aac 3331 a791
000001c0: 052c 7a2b a5ae 6cb4 02b1 92ac 65ad 232d
000001d0: b02d 0c30 54aa 4faf 24af a8a0 37b0 ffb0
000001e0: 3f30 4d31 e029 12ad 5aad 55b1 a5af 9fa0
000001f0: 26ac b42d b12b 9b2f c6b1 5aaf 31b1 180d

model/conv2d/BiasAdd/Cast:0 f2 [32]
-0.261 0.1975 0.01424 0.10004 -0.2139 -0.1586 0.0534 -0.2406
-0.01985 0.11847 -0.1765 0.10785 -0.000677 0.00683 0.1399 -0.0641
-0.1678 -0.06976 0.2147 -0.10925 -0.3203 0.1697 -0.02315 0.06125
-0.1161 -0.4666 -0.02553 0.03687 0.01402 0.1458 -0.05243 -0.1318
00000000: 2db4 5232 4a23 672e d8b2 13b1 d62a b3b3
00000010: 15a5 952f a6b1 e72e 8c91 fe1e 7a30 1aac
00000020: 5fb1 77ac df32 feae 20b5 6e31 eda5 d72b
00000030: 6eaf 77b7 89a6 b828 2e23 aa30 b6aa 38b0

model/batch_normalization_4/batchnorm/sub:0 f4 [64]
2.5523756 0.3966893 1.191566 1.2918133 2.490379 -0.28243864 2.8355658 1.4354438
1.1789753 1.4764669 1.3683558 1.9283338 1.4407275 1.898861 1.0266247 0.42351422
2.5735497 0.8742211 -0.67571694 -1.271904 0.17435464 1.1802235 2.6619327 1.8592702
3.049122 1.3600417 1.2164665 1.8851132 2.6218297 1.468169 2.9984345 -3.6908507
1.4313133 1.5018233 0.7233879 -0.9603671 -0.5336113 1.4060432 2.313245 -0.84393007
0.5303823 0.42904985 0.76331747 1.5066965 1.1505487 0.5915357 1.4175677 0.7067756
2.399774 0.05360772 3.6464996 1.599912 1.5421798 2.1688159 2.7451594 0.0108312555
1.526545 1.861464 2.6797624 2.1823983 1.5726702 0.92540157 3.077574 0.5536686
00000000: 1f5a 2340 dc1a cb3e 3c85 983f 235a a53f
00000010: 5f62 1f40 cc9b 90be e979 3540 9fbc b73f
00000020: aae8 963f defc bc3f 4826 af3f a4d3 f63f
00000030: c269 b83f e10d f33f 7068 833f dbd6 d83e
00000040: 0ab5 2440 f4cc 5f3f c9fb 2cbf c0cd a2bf
00000050: 068a 323e 9011 973f 1b5d 2a40 91fc ed3f
00000060: d124 4340 d915 ae3f 2db5 9b3f 644b f13f
00000070: 0fcc 2740 f6ec bb3f 5ae6 3f40 e636 6cc0
00000080: 4635 b73f bf3b c03f f32f 393f 9eda 75bf
00000090: c09a 08bf 39f9 b33f 350c 1440 cd0b 58bf
000000a0: 22c7 073f 6cac db3e c668 433f 6edb c03f
000000b0: 2e45 933f e26e 173f dc72 b53f 3fef 343f
000000c0: e695 1940 c593 5b3d 4060 6940 ebc9 cc3f
000000d0: 2666 c53f e1cd 0a40 b1b0 2f40 9475 313c
000000e0: d465 c33f 7444 ee3f 3a81 2b40 6aac 0b40
000000f0: 424d c93f 1ee7 6c3f f9f6 4440 3abd 0d3f

model/batch_normalization_4/batchnorm/mul:0 f4 [64]
10.065672 11.537958 4.6009736 4.9472756 9.984913 9.215028 11.579892 8.163524
4.414939 5.716235 5.146283 7.520626 5.6439085 13.657082 10.500953 1.5611475
10.701907 11.21897 7.7518973 12.014078 11.689371 4.394012 11.223574 7.193856
14.212749 8.336211 10.700448 10.581261 11.0924425 5.774925 14.709433 8.608188
12.260481 7.9131308 7.413259 10.9179535 8.631292 5.536128 9.552767 8.272063
8.662954 1.5671636 2.7930686 8.358509 4.448352 10.8190155 5.308041 2.6458776
9.834903 0.21792081 13.843226 13.651072 5.944815 8.936469 11.974618 0.041096903
5.893521 7.713258 10.292948 8.844986 7.4794407 7.050682 13.650307 2.0955427
00000000: fe0c 2141 7a9b 3841 2d3b 9340 1550 9e40
00000010: 34c2 1f41 c170 1341 3d47 3941 cb9d 0241
00000020: 2e47 8d40 66eb b640 5aae a440 f8a8 f040
00000030: e69a b440 6883 5a41 e703 2841 aed3 c73f
00000040: 033b 2b41 e780 3341 8b0f f840 aa39 4041
00000050: aa07 3b41 bf9b 8c40 c293 3341 1134 e640
00000060: 6b67 6341 1f61 0541 0935 2b41 d84c 2941
00000070: a57a 3141 30cc b840 d659 6b41 23bb 0941
00000080: ee2a 4441 5e38 fd40 6b39 ed40 f0af 2e41
00000090: c619 0a41 f627 b140 22d8 1841 5f5a 0441
000000a0: 769b 0a41 d198 c83f a3c1 3240 74bc 0541
000000b0: e658 8e40 b01a 2d41 79db a940 0f56 2940
000000c0: c35b 1d41 a226 5f3e db7d 5d41 ca6a 5a41
000000d0: ed3b be40 c7fb 0e41 0998 3f41 3a55 283d
000000e0: b997 bc40 02d3 f640 eaaf 2441 1085 0d41
000000f0: 9457 ef40 309f e140 a867 5a41 5f1d 0640
